{"format": "graph-model", "generatedBy": "1.14.0", "convertedBy": "TensorFlow.js Converter v1.3.2", "userDefinedMetadata": {"signature": {"inputs": {"Placeholder:0": {"name": "Placeholder:0", "dtype": "DT_FLOAT", "tensorShape": {"dim": [{"size": "-1"}, {"size": "2"}]}}, "strided_slice_3:0": {"name": "strided_slice_3:0", "dtype": "DT_FLOAT", "tensorShape": {"dim": [{"size": "-1"}, {"size": "512"}, {"size": "1024"}, {"size": "2"}]}}, "Placeholder_1:0": {"name": "Placeholder_1:0", "dtype": "DT_STRING", "tensorShape": {"unknownRank": true}}, "transpose_1:0": {"name": "transpose_1:0", "dtype": "DT_COMPLEX64", "tensorShape": {"dim": [{"size": "-1"}, {"size": "2049"}, {"size": "2"}]}}}, "outputs": {"Placeholder_1:0": {"name": "Placeholder_1:0", "dtype": "DT_STRING", "tensorShape": {"unknownRank": true}}, "strided_slice_23:0": {"name": "strided_slice_23:0", "dtype": "DT_FLOAT", "tensorShape": {"dim": [{"size": "-1"}, {"size": "2"}]}}, "strided_slice_13:0": {"name": "strided_slice_13:0", "dtype": "DT_FLOAT", "tensorShape": {"dim": [{"size": "-1"}, {"size": "2"}]}}}}}, "modelTopology": {"node": [{"name": "Placeholder", "op": "Placeholder", "attr": {"shape": {"shape": {"dim": [{"size": "-1"}, {"size": "2"}]}}, "dtype": {"type": "DT_FLOAT"}}}, {"name": "Placeholder_1", "op": "Placeholder", "attr": {"dtype": {"type": "DT_STRING"}, "shape": {"shape": {"unknownRank": true}}}}, {"name": "transpose/perm", "op": "Const", "attr": {"value": {"tensor": {"dtype": "DT_INT32", "tensorShape": {"dim": [{"size": "2"}]}}}, "dtype": {"type": "DT_INT32"}}}, {"name": "stft/frame_length", "op": "Const", "attr": {"value": {"tensor": {"dtype": "DT_INT32", "tensorShape": {}}}, "dtype": {"type": "DT_INT32"}}}, {"name": "stft/frame_step", "op": "Const", "attr": {"value": {"tensor": {"dtype": "DT_INT32", "tensorShape": {}}}, "dtype": {"type": "DT_INT32"}}}, {"name": "stft/frame/strided_slice", "op": "Const", "attr": {"value": {"tensor": {"dtype": "DT_INT32", "tensorShape": {}}}, "dtype": {"type": "DT_INT32"}}}, {"name": "stft/frame/strided_slice_1/stack", "op": "Const", "attr": {"dtype": {"type": "DT_INT32"}, "value": {"tensor": {"dtype": "DT_INT32", "tensorShape": {"dim": [{"size": "1"}]}}}}}, {"name": "stft/frame/packed", "op": "Const", "attr": {"value": {"tensor": {"dtype": "DT_INT32", "tensorShape": {"dim": [{"size": "3"}]}}}, "dtype": {"type": "DT_INT32"}}}, {"name": "stft/frame/split/split_dim", "op": "Const", "attr": {"dtype": {"type": "DT_INT32"}, "value": {"tensor": {"dtype": "DT_INT32", "tensorShape": {}}}}}, {"name": "stft/frame/Reshape/shape", "op": "Const", "attr": {"value": {"tensor": {"dtype": "DT_INT32", "tensorShape": {"dim": [{}]}}}, "dtype": {"type": "DT_INT32"}}}, {"name": "stft/frame/Const", "op": "Const", "attr": {"value": {"tensor": {"dtype": "DT_FLOAT", "tensorShape": {}}}, "dtype": {"type": "DT_FLOAT"}}}, {"name": "stft/frame/zeros/packed/1", "op": "Const", "attr": {"dtype": {"type": "DT_INT32"}, "value": {"tensor": {"dtype": "DT_INT32", "tensorShape": {}}}}}, {"name": "stft/frame/strided_slice_1/stack_1", "op": "Const", "attr": {"value": {"tensor": {"dtype": "DT_INT32", "tensorShape": {"dim": [{"size": "1"}]}}}, "dtype": {"type": "DT_INT32"}}}, {"name": "stft/frame/zeros_like", "op": "Const", "attr": {"value": {"tensor": {"dtype": "DT_INT32", "tensorShape": {"dim": [{"size": "2"}]}}}, "dtype": {"type": "DT_INT32"}}}, {"name": "stft/frame/Reshape_3", "op": "Const", "attr": {"value": {"tensor": {"dtype": "DT_INT32", "tensorShape": {"dim": [{"size": "1"}, {"size": "4"}]}}}, "dtype": {"type": "DT_INT32"}}}, {"name": "stft/hann_window/sub_2", "op": "Const", "attr": {"value": {"tensor": {"dtype": "DT_FLOAT", "tensorShape": {"dim": [{"size": "4096"}]}}}, "dtype": {"type": "DT_FLOAT"}}}, {"name": "transpose_1/perm", "op": "Const", "attr": {"value": {"tensor": {"dtype": "DT_INT32", "tensorShape": {"dim": [{"size": "3"}]}}}, "dtype": {"type": "DT_INT32"}}}, {"name": "strided_slice/stack", "op": "Const", "attr": {"value": {"tensor": {"dtype": "DT_INT32", "tensorShape": {"dim": [{"size": "1"}]}}}, "dtype": {"type": "DT_INT32"}}}, {"name": "FloorMod/y", "op": "Const", "attr": {"dtype": {"type": "DT_INT32"}, "value": {"tensor": {"dtype": "DT_INT32", "tensorShape": {}}}}}, {"name": "strided_slice_3/stack", "op": "Const", "attr": {"dtype": {"type": "DT_INT32"}, "value": {"tensor": {"dtype": "DT_INT32", "tensorShape": {"dim": [{"size": "4"}]}}}}}, {"name": "strided_slice_3/stack_1", "op": "Const", "attr": {"value": {"tensor": {"dtype": "DT_INT32", "tensorShape": {"dim": [{"size": "4"}]}}}, "dtype": {"type": "DT_INT32"}}}, {"name": "strided_slice_3/stack_2", "op": "Const", "attr": {"dtype": {"type": "DT_INT32"}, "value": {"tensor": {"dtype": "DT_INT32", "tensorShape": {"dim": [{"size": "4"}]}}}}}, {"name": "conv2d/kernel", "op": "Const", "attr": {"dtype": {"type": "DT_FLOAT"}, "value": {"tensor": {"dtype": "DT_FLOAT", "tensorShape": {"dim": [{"size": "5"}, {"size": "5"}, {"size": "2"}, {"size": "16"}]}}}}}, {"name": "conv2d/bias", "op": "Const", "attr": {"value": {"tensor": {"dtype": "DT_FLOAT", "tensorShape": {"dim": [{"size": "16"}]}}}, "dtype": {"type": "DT_FLOAT"}}}, {"name": "batch_normalization/gamma", "op": "Const", "attr": {"value": {"tensor": {"dtype": "DT_FLOAT", "tensorShape": {"dim": [{"size": "16"}]}}}, "dtype": {"type": "DT_FLOAT"}}}, {"name": "batch_normalization/beta", "op": "Const", "attr": {"value": {"tensor": {"dtype": "DT_FLOAT", "tensorShape": {"dim": [{"size": "16"}]}}}, "dtype": {"type": "DT_FLOAT"}}}, {"name": "batch_normalization/moving_mean", "op": "Const", "attr": {"value": {"tensor": {"dtype": "DT_FLOAT", "tensorShape": {"dim": [{"size": "16"}]}}}, "dtype": {"type": "DT_FLOAT"}}}, {"name": "batch_normalization/moving_variance", "op": "Const", "attr": {"value": {"tensor": {"dtype": "DT_FLOAT", "tensorShape": {"dim": [{"size": "16"}]}}}, "dtype": {"type": "DT_FLOAT"}}}, {"name": "keras_learning_phase/input", "op": "Const", "attr": {"value": {"tensor": {"dtype": "DT_BOOL", "tensorShape": {}}}, "dtype": {"type": "DT_BOOL"}}}, {"name": "conv2d_1/kernel", "op": "Const", "attr": {"value": {"tensor": {"dtype": "DT_FLOAT", "tensorShape": {"dim": [{"size": "5"}, {"size": "5"}, {"size": "16"}, {"size": "32"}]}}}, "dtype": {"type": "DT_FLOAT"}}}, {"name": "conv2d_1/bias", "op": "Const", "attr": {"value": {"tensor": {"dtype": "DT_FLOAT", "tensorShape": {"dim": [{"size": "32"}]}}}, "dtype": {"type": "DT_FLOAT"}}}, {"name": "batch_normalization_1/gamma", "op": "Const", "attr": {"value": {"tensor": {"dtype": "DT_FLOAT", "tensorShape": {"dim": [{"size": "32"}]}}}, "dtype": {"type": "DT_FLOAT"}}}, {"name": "batch_normalization_1/beta", "op": "Const", "attr": {"value": {"tensor": {"dtype": "DT_FLOAT", "tensorShape": {"dim": [{"size": "32"}]}}}, "dtype": {"type": "DT_FLOAT"}}}, {"name": "batch_normalization_1/moving_mean", "op": "Const", "attr": {"value": {"tensor": {"dtype": "DT_FLOAT", "tensorShape": {"dim": [{"size": "32"}]}}}, "dtype": {"type": "DT_FLOAT"}}}, {"name": "batch_normalization_1/moving_variance", "op": "Const", "attr": {"value": {"tensor": {"dtype": "DT_FLOAT", "tensorShape": {"dim": [{"size": "32"}]}}}, "dtype": {"type": "DT_FLOAT"}}}, {"name": "conv2d_2/kernel", "op": "Const", "attr": {"value": {"tensor": {"dtype": "DT_FLOAT", "tensorShape": {"dim": [{"size": "5"}, {"size": "5"}, {"size": "32"}, {"size": "64"}]}}}, "dtype": {"type": "DT_FLOAT"}}}, {"name": "conv2d_2/bias", "op": "Const", "attr": {"value": {"tensor": {"dtype": "DT_FLOAT", "tensorShape": {"dim": [{"size": "64"}]}}}, "dtype": {"type": "DT_FLOAT"}}}, {"name": "inverse_stft_1/overlap_and_add/concat_2", "op": "Const", "attr": {"value": {"tensor": {"dtype": "DT_INT32", "tensorShape": {"dim": [{"size": "4"}]}}}, "dtype": {"type": "DT_INT32"}}}, {"name": "batch_normalization_2/gamma", "op": "Const", "attr": {"value": {"tensor": {"dtype": "DT_FLOAT", "tensorShape": {"dim": [{"size": "64"}]}}}, "dtype": {"type": "DT_FLOAT"}}}, {"name": "batch_normalization_2/beta", "op": "Const", "attr": {"value": {"tensor": {"dtype": "DT_FLOAT", "tensorShape": {"dim": [{"size": "64"}]}}}, "dtype": {"type": "DT_FLOAT"}}}, {"name": "batch_normalization_2/moving_mean", "op": "Const", "attr": {"dtype": {"type": "DT_FLOAT"}, "value": {"tensor": {"dtype": "DT_FLOAT", "tensorShape": {"dim": [{"size": "64"}]}}}}}, {"name": "batch_normalization_2/moving_variance", "op": "Const", "attr": {"value": {"tensor": {"dtype": "DT_FLOAT", "tensorShape": {"dim": [{"size": "64"}]}}}, "dtype": {"type": "DT_FLOAT"}}}, {"name": "conv2d_3/kernel", "op": "Const", "attr": {"value": {"tensor": {"dtype": "DT_FLOAT", "tensorShape": {"dim": [{"size": "5"}, {"size": "5"}, {"size": "64"}, {"size": "128"}]}}}, "dtype": {"type": "DT_FLOAT"}}}, {"name": "conv2d_3/bias", "op": "Const", "attr": {"value": {"tensor": {"dtype": "DT_FLOAT", "tensorShape": {"dim": [{"size": "128"}]}}}, "dtype": {"type": "DT_FLOAT"}}}, {"name": "batch_normalization_3/gamma", "op": "Const", "attr": {"value": {"tensor": {"dtype": "DT_FLOAT", "tensorShape": {"dim": [{"size": "128"}]}}}, "dtype": {"type": "DT_FLOAT"}}}, {"name": "batch_normalization_3/beta", "op": "Const", "attr": {"value": {"tensor": {"dtype": "DT_FLOAT", "tensorShape": {"dim": [{"size": "128"}]}}}, "dtype": {"type": "DT_FLOAT"}}}, {"name": "batch_normalization_3/moving_mean", "op": "Const", "attr": {"dtype": {"type": "DT_FLOAT"}, "value": {"tensor": {"dtype": "DT_FLOAT", "tensorShape": {"dim": [{"size": "128"}]}}}}}, {"name": "batch_normalization_3/moving_variance", "op": "Const", "attr": {"value": {"tensor": {"dtype": "DT_FLOAT", "tensorShape": {"dim": [{"size": "128"}]}}}, "dtype": {"type": "DT_FLOAT"}}}, {"name": "conv2d_4/kernel", "op": "Const", "attr": {"value": {"tensor": {"dtype": "DT_FLOAT", "tensorShape": {"dim": [{"size": "5"}, {"size": "5"}, {"size": "128"}, {"size": "256"}]}}}, "dtype": {"type": "DT_FLOAT"}}}, {"name": "conv2d_4/bias", "op": "Const", "attr": {"dtype": {"type": "DT_FLOAT"}, "value": {"tensor": {"dtype": "DT_FLOAT", "tensorShape": {"dim": [{"size": "256"}]}}}}}, {"name": "batch_normalization_4/gamma", "op": "Const", "attr": {"value": {"tensor": {"dtype": "DT_FLOAT", "tensorShape": {"dim": [{"size": "256"}]}}}, "dtype": {"type": "DT_FLOAT"}}}, {"name": "batch_normalization_4/beta", "op": "Const", "attr": {"value": {"tensor": {"dtype": "DT_FLOAT", "tensorShape": {"dim": [{"size": "256"}]}}}, "dtype": {"type": "DT_FLOAT"}}}, {"name": "batch_normalization_4/moving_mean", "op": "Const", "attr": {"value": {"tensor": {"dtype": "DT_FLOAT", "tensorShape": {"dim": [{"size": "256"}]}}}, "dtype": {"type": "DT_FLOAT"}}}, {"name": "batch_normalization_4/moving_variance", "op": "Const", "attr": {"value": {"tensor": {"dtype": "DT_FLOAT", "tensorShape": {"dim": [{"size": "256"}]}}}, "dtype": {"type": "DT_FLOAT"}}}, {"name": "conv2d_5/kernel", "op": "Const", "attr": {"value": {"tensor": {"dtype": "DT_FLOAT", "tensorShape": {"dim": [{"size": "5"}, {"size": "5"}, {"size": "256"}, {"size": "512"}]}}}, "dtype": {"type": "DT_FLOAT"}}}, {"name": "conv2d_5/bias", "op": "Const", "attr": {"value": {"tensor": {"dtype": "DT_FLOAT", "tensorShape": {"dim": [{"size": "512"}]}}}, "dtype": {"type": "DT_FLOAT"}}}, {"name": "conv2d_transpose/kernel", "op": "Const", "attr": {"value": {"tensor": {"dtype": "DT_FLOAT", "tensorShape": {"dim": [{"size": "5"}, {"size": "5"}, {"size": "256"}, {"size": "512"}]}}}, "dtype": {"type": "DT_FLOAT"}}}, {"name": "conv2d_transpose/bias", "op": "Const", "attr": {"value": {"tensor": {"dtype": "DT_FLOAT", "tensorShape": {"dim": [{"size": "256"}]}}}, "dtype": {"type": "DT_FLOAT"}}}, {"name": "inverse_stft_1/overlap_and_add/strided_slice_3/stack", "op": "Const", "attr": {"value": {"tensor": {"dtype": "DT_INT32", "tensorShape": {"dim": [{"size": "3"}]}}}, "dtype": {"type": "DT_INT32"}}}, {"name": "conv2d_transpose/strided_slice_2/stack_1", "op": "Const", "attr": {"value": {"tensor": {"dtype": "DT_INT32", "tensorShape": {"dim": [{"size": "1"}]}}}, "dtype": {"type": "DT_INT32"}}}, {"name": "conv2d_transpose/stack/3", "op": "Const", "attr": {"value": {"tensor": {"dtype": "DT_INT32", "tensorShape": {}}}, "dtype": {"type": "DT_INT32"}}}, {"name": "batch_normalization_6/gamma", "op": "Const", "attr": {"value": {"tensor": {"dtype": "DT_FLOAT", "tensorShape": {"dim": [{"size": "256"}]}}}, "dtype": {"type": "DT_FLOAT"}}}, {"name": "batch_normalization_6/beta", "op": "Const", "attr": {"value": {"tensor": {"dtype": "DT_FLOAT", "tensorShape": {"dim": [{"size": "256"}]}}}, "dtype": {"type": "DT_FLOAT"}}}, {"name": "concatenate/concat/axis", "op": "Const", "attr": {"dtype": {"type": "DT_INT32"}, "value": {"tensor": {"dtype": "DT_INT32", "tensorShape": {}}}}}, {"name": "conv2d_transpose_1/kernel", "op": "Const", "attr": {"value": {"tensor": {"dtype": "DT_FLOAT", "tensorShape": {"dim": [{"size": "5"}, {"size": "5"}, {"size": "128"}, {"size": "512"}]}}}, "dtype": {"type": "DT_FLOAT"}}}, {"name": "conv2d_transpose_1/bias", "op": "Const", "attr": {"value": {"tensor": {"dtype": "DT_FLOAT", "tensorShape": {"dim": [{"size": "128"}]}}}, "dtype": {"type": "DT_FLOAT"}}}, {"name": "conv2d_transpose_1/stack/3", "op": "Const", "attr": {"value": {"tensor": {"dtype": "DT_INT32", "tensorShape": {}}}, "dtype": {"type": "DT_INT32"}}}, {"name": "batch_normalization_7/gamma", "op": "Const", "attr": {"value": {"tensor": {"dtype": "DT_FLOAT", "tensorShape": {"dim": [{"size": "128"}]}}}, "dtype": {"type": "DT_FLOAT"}}}, {"name": "batch_normalization_7/beta", "op": "Const", "attr": {"value": {"tensor": {"dtype": "DT_FLOAT", "tensorShape": {"dim": [{"size": "128"}]}}}, "dtype": {"type": "DT_FLOAT"}}}, {"name": "conv2d_transpose_2/kernel", "op": "Const", "attr": {"value": {"tensor": {"dtype": "DT_FLOAT", "tensorShape": {"dim": [{"size": "5"}, {"size": "5"}, {"size": "64"}, {"size": "256"}]}}}, "dtype": {"type": "DT_FLOAT"}}}, {"name": "conv2d_transpose_2/bias", "op": "Const", "attr": {"dtype": {"type": "DT_FLOAT"}, "value": {"tensor": {"dtype": "DT_FLOAT", "tensorShape": {"dim": [{"size": "64"}]}}}}}, {"name": "inverse_stft_1/overlap_and_add/strided_slice_3/stack_2", "op": "Const", "attr": {"value": {"tensor": {"dtype": "DT_INT32", "tensorShape": {"dim": [{"size": "3"}]}}}, "dtype": {"type": "DT_INT32"}}}, {"name": "conv2d_transpose_2/stack/3", "op": "Const", "attr": {"value": {"tensor": {"dtype": "DT_INT32", "tensorShape": {}}}, "dtype": {"type": "DT_INT32"}}}, {"name": "batch_normalization_8/gamma", "op": "Const", "attr": {"value": {"tensor": {"dtype": "DT_FLOAT", "tensorShape": {"dim": [{"size": "64"}]}}}, "dtype": {"type": "DT_FLOAT"}}}, {"name": "batch_normalization_8/beta", "op": "Const", "attr": {"value": {"tensor": {"dtype": "DT_FLOAT", "tensorShape": {"dim": [{"size": "64"}]}}}, "dtype": {"type": "DT_FLOAT"}}}, {"name": "conv2d_transpose_3/kernel", "op": "Const", "attr": {"value": {"tensor": {"dtype": "DT_FLOAT", "tensorShape": {"dim": [{"size": "5"}, {"size": "5"}, {"size": "32"}, {"size": "128"}]}}}, "dtype": {"type": "DT_FLOAT"}}}, {"name": "conv2d_transpose_3/bias", "op": "Const", "attr": {"value": {"tensor": {"dtype": "DT_FLOAT", "tensorShape": {"dim": [{"size": "32"}]}}}, "dtype": {"type": "DT_FLOAT"}}}, {"name": "conv2d_transpose_3/stack/3", "op": "Const", "attr": {"value": {"tensor": {"dtype": "DT_INT32", "tensorShape": {}}}, "dtype": {"type": "DT_INT32"}}}, {"name": "batch_normalization_9/gamma", "op": "Const", "attr": {"value": {"tensor": {"dtype": "DT_FLOAT", "tensorShape": {"dim": [{"size": "32"}]}}}, "dtype": {"type": "DT_FLOAT"}}}, {"name": "batch_normalization_9/beta", "op": "Const", "attr": {"value": {"tensor": {"dtype": "DT_FLOAT", "tensorShape": {"dim": [{"size": "32"}]}}}, "dtype": {"type": "DT_FLOAT"}}}, {"name": "conv2d_transpose_4/kernel", "op": "Const", "attr": {"value": {"tensor": {"dtype": "DT_FLOAT", "tensorShape": {"dim": [{"size": "5"}, {"size": "5"}, {"size": "16"}, {"size": "64"}]}}}, "dtype": {"type": "DT_FLOAT"}}}, {"name": "conv2d_transpose_4/bias", "op": "Const", "attr": {"value": {"tensor": {"dtype": "DT_FLOAT", "tensorShape": {"dim": [{"size": "16"}]}}}, "dtype": {"type": "DT_FLOAT"}}}, {"name": "conv2d_transpose_4/stack/3", "op": "Const", "attr": {"value": {"tensor": {"dtype": "DT_INT32", "tensorShape": {}}}, "dtype": {"type": "DT_INT32"}}}, {"name": "batch_normalization_10/gamma", "op": "Const", "attr": {"value": {"tensor": {"dtype": "DT_FLOAT", "tensorShape": {"dim": [{"size": "16"}]}}}, "dtype": {"type": "DT_FLOAT"}}}, {"name": "batch_normalization_10/beta", "op": "Const", "attr": {"value": {"tensor": {"dtype": "DT_FLOAT", "tensorShape": {"dim": [{"size": "16"}]}}}, "dtype": {"type": "DT_FLOAT"}}}, {"name": "conv2d_transpose_5/kernel", "op": "Const", "attr": {"value": {"tensor": {"dtype": "DT_FLOAT", "tensorShape": {"dim": [{"size": "5"}, {"size": "5"}, {"size": "1"}, {"size": "32"}]}}}, "dtype": {"type": "DT_FLOAT"}}}, {"name": "conv2d_transpose_5/bias", "op": "Const", "attr": {"value": {"tensor": {"dtype": "DT_FLOAT", "tensorShape": {"dim": [{"size": "1"}]}}}, "dtype": {"type": "DT_FLOAT"}}}, {"name": "batch_normalization_11/gamma", "op": "Const", "attr": {"value": {"tensor": {"dtype": "DT_FLOAT", "tensorShape": {"dim": [{"size": "1"}]}}}, "dtype": {"type": "DT_FLOAT"}}}, {"name": "batch_normalization_11/beta", "op": "Const", "attr": {"value": {"tensor": {"dtype": "DT_FLOAT", "tensorShape": {"dim": [{"size": "1"}]}}}, "dtype": {"type": "DT_FLOAT"}}}, {"name": "batch_normalization_11/moving_mean", "op": "Const", "attr": {"value": {"tensor": {"dtype": "DT_FLOAT", "tensorShape": {"dim": [{"size": "1"}]}}}, "dtype": {"type": "DT_FLOAT"}}}, {"name": "batch_normalization_11/moving_variance", "op": "Const", "attr": {"value": {"tensor": {"dtype": "DT_FLOAT", "tensorShape": {"dim": [{"size": "1"}]}}}, "dtype": {"type": "DT_FLOAT"}}}, {"name": "conv2d_6/kernel", "op": "Const", "attr": {"value": {"tensor": {"dtype": "DT_FLOAT", "tensorShape": {"dim": [{"size": "4"}, {"size": "4"}, {"size": "1"}, {"size": "2"}]}}}, "dtype": {"type": "DT_FLOAT"}}}, {"name": "conv2d_6/bias", "op": "Const", "attr": {"value": {"tensor": {"dtype": "DT_FLOAT", "tensorShape": {"dim": [{"size": "2"}]}}}, "dtype": {"type": "DT_FLOAT"}}}, {"name": "inverse_stft_1/overlap_and_add/Sum/reduction_indices", "op": "Const", "attr": {"value": {"tensor": {"dtype": "DT_INT32", "tensorShape": {}}}, "dtype": {"type": "DT_INT32"}}}, {"name": "conv2d_6/SpaceToBatchND/block_shape", "op": "Const", "attr": {"value": {"tensor": {"dtype": "DT_INT32", "tensorShape": {"dim": [{"size": "2"}]}}}, "dtype": {"type": "DT_INT32"}}}, {"name": "conv2d_6/SpaceToBatchND/paddings", "op": "Const", "attr": {"value": {"tensor": {"dtype": "DT_INT32", "tensorShape": {"dim": [{"size": "2"}, {"size": "2"}]}}}, "dtype": {"type": "DT_INT32"}}}, {"name": "conv2d_6/BatchToSpaceND/crops", "op": "Const", "attr": {"value": {"tensor": {"dtype": "DT_INT32", "tensorShape": {"dim": [{"size": "2"}, {"size": "2"}]}}}, "dtype": {"type": "DT_INT32"}}}, {"name": "conv2d_7/kernel", "op": "Const", "attr": {"value": {"tensor": {"dtype": "DT_FLOAT", "tensorShape": {"dim": [{"size": "5"}, {"size": "5"}, {"size": "2"}, {"size": "16"}]}}}, "dtype": {"type": "DT_FLOAT"}}}, {"name": "conv2d_7/bias", "op": "Const", "attr": {"value": {"tensor": {"dtype": "DT_FLOAT", "tensorShape": {"dim": [{"size": "16"}]}}}, "dtype": {"type": "DT_FLOAT"}}}, {"name": "batch_normalization_12/gamma", "op": "Const", "attr": {"value": {"tensor": {"dtype": "DT_FLOAT", "tensorShape": {"dim": [{"size": "16"}]}}}, "dtype": {"type": "DT_FLOAT"}}}, {"name": "batch_normalization_12/beta", "op": "Const", "attr": {"value": {"tensor": {"dtype": "DT_FLOAT", "tensorShape": {"dim": [{"size": "16"}]}}}, "dtype": {"type": "DT_FLOAT"}}}, {"name": "conv2d_8/kernel", "op": "Const", "attr": {"value": {"tensor": {"dtype": "DT_FLOAT", "tensorShape": {"dim": [{"size": "5"}, {"size": "5"}, {"size": "16"}, {"size": "32"}]}}}, "dtype": {"type": "DT_FLOAT"}}}, {"name": "conv2d_8/bias", "op": "Const", "attr": {"value": {"tensor": {"dtype": "DT_FLOAT", "tensorShape": {"dim": [{"size": "32"}]}}}, "dtype": {"type": "DT_FLOAT"}}}, {"name": "batch_normalization_13/gamma", "op": "Const", "attr": {"value": {"tensor": {"dtype": "DT_FLOAT", "tensorShape": {"dim": [{"size": "32"}]}}}, "dtype": {"type": "DT_FLOAT"}}}, {"name": "batch_normalization_13/beta", "op": "Const", "attr": {"dtype": {"type": "DT_FLOAT"}, "value": {"tensor": {"dtype": "DT_FLOAT", "tensorShape": {"dim": [{"size": "32"}]}}}}}, {"name": "conv2d_9/kernel", "op": "Const", "attr": {"value": {"tensor": {"dtype": "DT_FLOAT", "tensorShape": {"dim": [{"size": "5"}, {"size": "5"}, {"size": "32"}, {"size": "64"}]}}}, "dtype": {"type": "DT_FLOAT"}}}, {"name": "conv2d_9/bias", "op": "Const", "attr": {"value": {"tensor": {"dtype": "DT_FLOAT", "tensorShape": {"dim": [{"size": "64"}]}}}, "dtype": {"type": "DT_FLOAT"}}}, {"name": "batch_normalization_14/gamma", "op": "Const", "attr": {"value": {"tensor": {"dtype": "DT_FLOAT", "tensorShape": {"dim": [{"size": "64"}]}}}, "dtype": {"type": "DT_FLOAT"}}}, {"name": "batch_normalization_14/beta", "op": "Const", "attr": {"value": {"tensor": {"dtype": "DT_FLOAT", "tensorShape": {"dim": [{"size": "64"}]}}}, "dtype": {"type": "DT_FLOAT"}}}, {"name": "conv2d_10/kernel", "op": "Const", "attr": {"dtype": {"type": "DT_FLOAT"}, "value": {"tensor": {"dtype": "DT_FLOAT", "tensorShape": {"dim": [{"size": "5"}, {"size": "5"}, {"size": "64"}, {"size": "128"}]}}}}}, {"name": "conv2d_10/bias", "op": "Const", "attr": {"value": {"tensor": {"dtype": "DT_FLOAT", "tensorShape": {"dim": [{"size": "128"}]}}}, "dtype": {"type": "DT_FLOAT"}}}, {"name": "batch_normalization_15/gamma", "op": "Const", "attr": {"value": {"tensor": {"dtype": "DT_FLOAT", "tensorShape": {"dim": [{"size": "128"}]}}}, "dtype": {"type": "DT_FLOAT"}}}, {"name": "batch_normalization_15/beta", "op": "Const", "attr": {"value": {"tensor": {"dtype": "DT_FLOAT", "tensorShape": {"dim": [{"size": "128"}]}}}, "dtype": {"type": "DT_FLOAT"}}}, {"name": "conv2d_11/kernel", "op": "Const", "attr": {"dtype": {"type": "DT_FLOAT"}, "value": {"tensor": {"dtype": "DT_FLOAT", "tensorShape": {"dim": [{"size": "5"}, {"size": "5"}, {"size": "128"}, {"size": "256"}]}}}}}, {"name": "conv2d_11/bias", "op": "Const", "attr": {"value": {"tensor": {"dtype": "DT_FLOAT", "tensorShape": {"dim": [{"size": "256"}]}}}, "dtype": {"type": "DT_FLOAT"}}}, {"name": "batch_normalization_16/gamma", "op": "Const", "attr": {"value": {"tensor": {"dtype": "DT_FLOAT", "tensorShape": {"dim": [{"size": "256"}]}}}, "dtype": {"type": "DT_FLOAT"}}}, {"name": "batch_normalization_16/beta", "op": "Const", "attr": {"value": {"tensor": {"dtype": "DT_FLOAT", "tensorShape": {"dim": [{"size": "256"}]}}}, "dtype": {"type": "DT_FLOAT"}}}, {"name": "conv2d_12/kernel", "op": "Const", "attr": {"dtype": {"type": "DT_FLOAT"}, "value": {"tensor": {"dtype": "DT_FLOAT", "tensorShape": {"dim": [{"size": "5"}, {"size": "5"}, {"size": "256"}, {"size": "512"}]}}}}}, {"name": "conv2d_12/bias", "op": "Const", "attr": {"value": {"tensor": {"dtype": "DT_FLOAT", "tensorShape": {"dim": [{"size": "512"}]}}}, "dtype": {"type": "DT_FLOAT"}}}, {"name": "inverse_stft_1/overlap_and_add/strided_slice_4/stack_2", "op": "Const", "attr": {"value": {"tensor": {"dtype": "DT_INT32", "tensorShape": {"dim": [{"size": "2"}]}}}, "dtype": {"type": "DT_INT32"}}}, {"name": "conv2d_transpose_6/kernel", "op": "Const", "attr": {"value": {"tensor": {"dtype": "DT_FLOAT", "tensorShape": {"dim": [{"size": "5"}, {"size": "5"}, {"size": "256"}, {"size": "512"}]}}}, "dtype": {"type": "DT_FLOAT"}}}, {"name": "conv2d_transpose_6/bias", "op": "Const", "attr": {"value": {"tensor": {"dtype": "DT_FLOAT", "tensorShape": {"dim": [{"size": "256"}]}}}, "dtype": {"type": "DT_FLOAT"}}}, {"name": "mul_5/y", "op": "Const", "attr": {"value": {"tensor": {"dtype": "DT_FLOAT", "tensorShape": {}}}, "dtype": {"type": "DT_FLOAT"}}}, {"name": "batch_normalization_18/gamma", "op": "Const", "attr": {"value": {"tensor": {"dtype": "DT_FLOAT", "tensorShape": {"dim": [{"size": "256"}]}}}, "dtype": {"type": "DT_FLOAT"}}}, {"name": "batch_normalization_18/beta", "op": "Const", "attr": {"value": {"tensor": {"dtype": "DT_FLOAT", "tensorShape": {"dim": [{"size": "256"}]}}}, "dtype": {"type": "DT_FLOAT"}}}, {"name": "conv2d_transpose_7/kernel", "op": "Const", "attr": {"value": {"tensor": {"dtype": "DT_FLOAT", "tensorShape": {"dim": [{"size": "5"}, {"size": "5"}, {"size": "128"}, {"size": "512"}]}}}, "dtype": {"type": "DT_FLOAT"}}}, {"name": "conv2d_transpose_7/bias", "op": "Const", "attr": {"value": {"tensor": {"dtype": "DT_FLOAT", "tensorShape": {"dim": [{"size": "128"}]}}}, "dtype": {"type": "DT_FLOAT"}}}, {"name": "batch_normalization_19/gamma", "op": "Const", "attr": {"value": {"tensor": {"dtype": "DT_FLOAT", "tensorShape": {"dim": [{"size": "128"}]}}}, "dtype": {"type": "DT_FLOAT"}}}, {"name": "batch_normalization_19/beta", "op": "Const", "attr": {"value": {"tensor": {"dtype": "DT_FLOAT", "tensorShape": {"dim": [{"size": "128"}]}}}, "dtype": {"type": "DT_FLOAT"}}}, {"name": "conv2d_transpose_8/kernel", "op": "Const", "attr": {"value": {"tensor": {"dtype": "DT_FLOAT", "tensorShape": {"dim": [{"size": "5"}, {"size": "5"}, {"size": "64"}, {"size": "256"}]}}}, "dtype": {"type": "DT_FLOAT"}}}, {"name": "conv2d_transpose_8/bias", "op": "Const", "attr": {"value": {"tensor": {"dtype": "DT_FLOAT", "tensorShape": {"dim": [{"size": "64"}]}}}, "dtype": {"type": "DT_FLOAT"}}}, {"name": "batch_normalization_20/gamma", "op": "Const", "attr": {"value": {"tensor": {"dtype": "DT_FLOAT", "tensorShape": {"dim": [{"size": "64"}]}}}, "dtype": {"type": "DT_FLOAT"}}}, {"name": "batch_normalization_20/beta", "op": "Const", "attr": {"value": {"tensor": {"dtype": "DT_FLOAT", "tensorShape": {"dim": [{"size": "64"}]}}}, "dtype": {"type": "DT_FLOAT"}}}, {"name": "conv2d_transpose_9/kernel", "op": "Const", "attr": {"value": {"tensor": {"dtype": "DT_FLOAT", "tensorShape": {"dim": [{"size": "5"}, {"size": "5"}, {"size": "32"}, {"size": "128"}]}}}, "dtype": {"type": "DT_FLOAT"}}}, {"name": "conv2d_transpose_9/bias", "op": "Const", "attr": {"value": {"tensor": {"dtype": "DT_FLOAT", "tensorShape": {"dim": [{"size": "32"}]}}}, "dtype": {"type": "DT_FLOAT"}}}, {"name": "batch_normalization_21/gamma", "op": "Const", "attr": {"dtype": {"type": "DT_FLOAT"}, "value": {"tensor": {"dtype": "DT_FLOAT", "tensorShape": {"dim": [{"size": "32"}]}}}}}, {"name": "batch_normalization_21/beta", "op": "Const", "attr": {"value": {"tensor": {"dtype": "DT_FLOAT", "tensorShape": {"dim": [{"size": "32"}]}}}, "dtype": {"type": "DT_FLOAT"}}}, {"name": "conv2d_transpose_10/kernel", "op": "Const", "attr": {"value": {"tensor": {"dtype": "DT_FLOAT", "tensorShape": {"dim": [{"size": "5"}, {"size": "5"}, {"size": "16"}, {"size": "64"}]}}}, "dtype": {"type": "DT_FLOAT"}}}, {"name": "conv2d_transpose_10/bias", "op": "Const", "attr": {"dtype": {"type": "DT_FLOAT"}, "value": {"tensor": {"dtype": "DT_FLOAT", "tensorShape": {"dim": [{"size": "16"}]}}}}}, {"name": "batch_normalization_22/gamma", "op": "Const", "attr": {"value": {"tensor": {"dtype": "DT_FLOAT", "tensorShape": {"dim": [{"size": "16"}]}}}, "dtype": {"type": "DT_FLOAT"}}}, {"name": "batch_normalization_22/beta", "op": "Const", "attr": {"value": {"tensor": {"dtype": "DT_FLOAT", "tensorShape": {"dim": [{"size": "16"}]}}}, "dtype": {"type": "DT_FLOAT"}}}, {"name": "conv2d_transpose_11/kernel", "op": "Const", "attr": {"value": {"tensor": {"dtype": "DT_FLOAT", "tensorShape": {"dim": [{"size": "5"}, {"size": "5"}, {"size": "1"}, {"size": "32"}]}}}, "dtype": {"type": "DT_FLOAT"}}}, {"name": "conv2d_transpose_11/bias", "op": "Const", "attr": {"value": {"tensor": {"dtype": "DT_FLOAT", "tensorShape": {"dim": [{"size": "1"}]}}}, "dtype": {"type": "DT_FLOAT"}}}, {"name": "batch_normalization_23/gamma", "op": "Const", "attr": {"value": {"tensor": {"dtype": "DT_FLOAT", "tensorShape": {"dim": [{"size": "1"}]}}}, "dtype": {"type": "DT_FLOAT"}}}, {"name": "batch_normalization_23/beta", "op": "Const", "attr": {"value": {"tensor": {"dtype": "DT_FLOAT", "tensorShape": {"dim": [{"size": "1"}]}}}, "dtype": {"type": "DT_FLOAT"}}}, {"name": "conv2d_13/kernel", "op": "Const", "attr": {"value": {"tensor": {"dtype": "DT_FLOAT", "tensorShape": {"dim": [{"size": "4"}, {"size": "4"}, {"size": "1"}, {"size": "2"}]}}}, "dtype": {"type": "DT_FLOAT"}}}, {"name": "conv2d_13/bias", "op": "Const", "attr": {"value": {"tensor": {"dtype": "DT_FLOAT", "tensorShape": {"dim": [{"size": "2"}]}}}, "dtype": {"type": "DT_FLOAT"}}}, {"name": "add_1/y", "op": "Const", "attr": {"value": {"tensor": {"dtype": "DT_FLOAT", "tensorShape": {}}}, "dtype": {"type": "DT_FLOAT"}}}, {"name": "add_2/y", "op": "Const", "attr": {"value": {"tensor": {"dtype": "DT_FLOAT", "tensorShape": {}}}, "dtype": {"type": "DT_FLOAT"}}}, {"name": "strided_slice_6/stack", "op": "Const", "attr": {"value": {"tensor": {"dtype": "DT_INT32", "tensorShape": {"dim": [{"size": "1"}]}}}, "dtype": {"type": "DT_INT32"}}}, {"name": "Tile/multiples", "op": "Const", "attr": {"value": {"tensor": {"dtype": "DT_INT32", "tensorShape": {"dim": [{"size": "4"}]}}}, "dtype": {"type": "DT_INT32"}}}, {"name": "transpose_2/perm", "op": "Const", "attr": {"value": {"tensor": {"dtype": "DT_INT32", "tensorShape": {"dim": [{"size": "3"}]}}}, "dtype": {"type": "DT_INT32"}}}, {"name": "inverse_stft/overlap_and_add/strided_slice/stack_1", "op": "Const", "attr": {"dtype": {"type": "DT_INT32"}, "value": {"tensor": {"dtype": "DT_INT32", "tensorShape": {"dim": [{"size": "1"}]}}}}}, {"name": "stft/rfft/packed", "op": "Const", "attr": {"value": {"tensor": {"dtype": "DT_INT32", "tensorShape": {"dim": [{"size": "1"}]}}}, "dtype": {"type": "DT_INT32"}}}, {"name": "stft/frame/zeros", "op": "Const", "attr": {"value": {"tensor": {"dtype": "DT_INT32", "tensorShape": {"dim": [{"size": "1"}, {"size": "2"}]}}}, "dtype": {"type": "DT_INT32"}}}, {"name": "stft/frame/zeros_1", "op": "Const", "attr": {"value": {"tensor": {"dtype": "DT_INT32", "tensorShape": {"dim": [{}, {"size": "2"}]}}}, "dtype": {"type": "DT_INT32"}}}, {"name": "Shape_6", "op": "Shape", "input": ["Placeholder"], "attr": {"T": {"type": "DT_FLOAT"}, "out_type": {"type": "DT_INT32"}}}, {"name": "transpose", "op": "Transpose", "input": ["Placeholder", "transpose/perm"], "attr": {"T": {"type": "DT_FLOAT"}, "Tperm": {"type": "DT_INT32"}}}, {"name": "keras_learning_phase", "op": "PlaceholderWithDefault", "input": ["keras_learning_phase/input"], "attr": {"shape": {"shape": {}}, "dtype": {"type": "DT_BOOL"}}}, {"name": "strided_slice_12", "op": "StridedSlice", "input": ["Shape_6", "strided_slice/stack", "stft/frame/strided_slice_1/stack", "stft/frame/strided_slice_1/stack"], "attr": {"shrink_axis_mask": {"i": "1"}, "ellipsis_mask": {"i": "0"}, "begin_mask": {"i": "0"}, "new_axis_mask": {"i": "0"}, "end_mask": {"i": "0"}, "T": {"type": "DT_INT32"}, "Index": {"type": "DT_INT32"}}}, {"name": "stft/frame/Shape", "op": "Shape", "input": ["transpose"], "attr": {"T": {"type": "DT_FLOAT"}, "out_type": {"type": "DT_INT32"}}}, {"name": "batch_normalization/cond/Switch", "op": "Switch", "input": ["keras_learning_phase", "keras_learning_phase"], "attr": {"T": {"type": "DT_BOOL"}}}, {"name": "batch_normalization/cond/ReadVariableOp/Switch", "op": "Switch", "input": ["batch_normalization/gamma", "keras_learning_phase"], "attr": {"T": {"type": "DT_FLOAT"}}}, {"name": "batch_normalization/cond/ReadVariableOp_1/Switch", "op": "Switch", "input": ["batch_normalization/beta", "keras_learning_phase"], "attr": {"T": {"type": "DT_FLOAT"}}}, {"name": "batch_normalization/cond/FusedBatchNorm_1/ReadVariableOp/Switch", "op": "Switch", "input": ["batch_normalization/moving_mean", "keras_learning_phase"], "attr": {"T": {"type": "DT_FLOAT"}}}, {"name": "batch_normalization/cond/FusedBatchNorm_1/ReadVariableOp_1/Switch", "op": "Switch", "input": ["batch_normalization/moving_variance", "keras_learning_phase"], "attr": {"T": {"type": "DT_FLOAT"}}}, {"name": "batch_normalization_1/cond/ReadVariableOp/Switch", "op": "Switch", "input": ["batch_normalization_1/gamma", "keras_learning_phase"], "attr": {"T": {"type": "DT_FLOAT"}}}, {"name": "batch_normalization_1/cond/ReadVariableOp_1/Switch", "op": "Switch", "input": ["batch_normalization_1/beta", "keras_learning_phase"], "attr": {"T": {"type": "DT_FLOAT"}}}, {"name": "batch_normalization_1/cond/FusedBatchNorm_1/ReadVariableOp/Switch", "op": "Switch", "input": ["batch_normalization_1/moving_mean", "keras_learning_phase"], "attr": {"T": {"type": "DT_FLOAT"}}}, {"name": "batch_normalization_1/cond/FusedBatchNorm_1/ReadVariableOp_1/Switch", "op": "Switch", "input": ["batch_normalization_1/moving_variance", "keras_learning_phase"], "attr": {"T": {"type": "DT_FLOAT"}}}, {"name": "batch_normalization_2/cond/ReadVariableOp/Switch", "op": "Switch", "input": ["batch_normalization_2/gamma", "keras_learning_phase"], "attr": {"T": {"type": "DT_FLOAT"}}}, {"name": "batch_normalization_2/cond/ReadVariableOp_1/Switch", "op": "Switch", "input": ["batch_normalization_2/beta", "keras_learning_phase"], "attr": {"T": {"type": "DT_FLOAT"}}}, {"name": "batch_normalization_2/cond/FusedBatchNorm_1/ReadVariableOp/Switch", "op": "Switch", "input": ["batch_normalization_2/moving_mean", "keras_learning_phase"], "attr": {"T": {"type": "DT_FLOAT"}}}, {"name": "batch_normalization_2/cond/FusedBatchNorm_1/ReadVariableOp_1/Switch", "op": "Switch", "input": ["batch_normalization_2/moving_variance", "keras_learning_phase"], "attr": {"T": {"type": "DT_FLOAT"}}}, {"name": "batch_normalization_3/cond/ReadVariableOp/Switch", "op": "Switch", "input": ["batch_normalization_3/gamma", "keras_learning_phase"], "attr": {"T": {"type": "DT_FLOAT"}}}, {"name": "batch_normalization_3/cond/ReadVariableOp_1/Switch", "op": "Switch", "input": ["batch_normalization_3/beta", "keras_learning_phase"], "attr": {"T": {"type": "DT_FLOAT"}}}, {"name": "batch_normalization_3/cond/FusedBatchNorm_1/ReadVariableOp/Switch", "op": "Switch", "input": ["batch_normalization_3/moving_mean", "keras_learning_phase"], "attr": {"T": {"type": "DT_FLOAT"}}}, {"name": "batch_normalization_3/cond/FusedBatchNorm_1/ReadVariableOp_1/Switch", "op": "Switch", "input": ["batch_normalization_3/moving_variance", "keras_learning_phase"], "attr": {"T": {"type": "DT_FLOAT"}}}, {"name": "batch_normalization_4/cond/ReadVariableOp/Switch", "op": "Switch", "input": ["batch_normalization_4/gamma", "keras_learning_phase"], "attr": {"T": {"type": "DT_FLOAT"}}}, {"name": "batch_normalization_4/cond/ReadVariableOp_1/Switch", "op": "Switch", "input": ["batch_normalization_4/beta", "keras_learning_phase"], "attr": {"T": {"type": "DT_FLOAT"}}}, {"name": "batch_normalization_4/cond/FusedBatchNorm_1/ReadVariableOp/Switch", "op": "Switch", "input": ["batch_normalization_4/moving_mean", "keras_learning_phase"], "attr": {"T": {"type": "DT_FLOAT"}}}, {"name": "batch_normalization_4/cond/FusedBatchNorm_1/ReadVariableOp_1/Switch", "op": "Switch", "input": ["batch_normalization_4/moving_variance", "keras_learning_phase"], "attr": {"T": {"type": "DT_FLOAT"}}}, {"name": "batch_normalization_6/cond/ReadVariableOp/Switch", "op": "Switch", "input": ["batch_normalization_6/gamma", "keras_learning_phase"], "attr": {"T": {"type": "DT_FLOAT"}}}, {"name": "batch_normalization_6/cond/ReadVariableOp_1/Switch", "op": "Switch", "input": ["batch_normalization_6/beta", "keras_learning_phase"], "attr": {"T": {"type": "DT_FLOAT"}}}, {"name": "batch_normalization_7/cond/ReadVariableOp/Switch", "op": "Switch", "input": ["batch_normalization_7/gamma", "keras_learning_phase"], "attr": {"T": {"type": "DT_FLOAT"}}}, {"name": "batch_normalization_7/cond/ReadVariableOp_1/Switch", "op": "Switch", "input": ["batch_normalization_7/beta", "keras_learning_phase"], "attr": {"T": {"type": "DT_FLOAT"}}}, {"name": "batch_normalization_8/cond/ReadVariableOp/Switch", "op": "Switch", "input": ["batch_normalization_8/gamma", "keras_learning_phase"], "attr": {"T": {"type": "DT_FLOAT"}}}, {"name": "batch_normalization_8/cond/ReadVariableOp_1/Switch", "op": "Switch", "input": ["batch_normalization_8/beta", "keras_learning_phase"], "attr": {"T": {"type": "DT_FLOAT"}}}, {"name": "batch_normalization_9/cond/ReadVariableOp/Switch", "op": "Switch", "input": ["batch_normalization_9/gamma", "keras_learning_phase"], "attr": {"T": {"type": "DT_FLOAT"}}}, {"name": "batch_normalization_9/cond/ReadVariableOp_1/Switch", "op": "Switch", "input": ["batch_normalization_9/beta", "keras_learning_phase"], "attr": {"T": {"type": "DT_FLOAT"}}}, {"name": "batch_normalization_10/cond/ReadVariableOp/Switch", "op": "Switch", "input": ["batch_normalization_10/gamma", "keras_learning_phase"], "attr": {"T": {"type": "DT_FLOAT"}}}, {"name": "batch_normalization_10/cond/ReadVariableOp_1/Switch", "op": "Switch", "input": ["batch_normalization_10/beta", "keras_learning_phase"], "attr": {"T": {"type": "DT_FLOAT"}}}, {"name": "batch_normalization_11/cond/ReadVariableOp/Switch", "op": "Switch", "input": ["batch_normalization_11/gamma", "keras_learning_phase"], "attr": {"T": {"type": "DT_FLOAT"}}}, {"name": "batch_normalization_11/cond/ReadVariableOp_1/Switch", "op": "Switch", "input": ["batch_normalization_11/beta", "keras_learning_phase"], "attr": {"T": {"type": "DT_FLOAT"}}}, {"name": "batch_normalization_11/cond/FusedBatchNorm_1/ReadVariableOp/Switch", "op": "Switch", "input": ["batch_normalization_11/moving_mean", "keras_learning_phase"], "attr": {"T": {"type": "DT_FLOAT"}}}, {"name": "batch_normalization_11/cond/FusedBatchNorm_1/ReadVariableOp_1/Switch", "op": "Switch", "input": ["batch_normalization_11/moving_variance", "keras_learning_phase"], "attr": {"T": {"type": "DT_FLOAT"}}}, {"name": "batch_normalization_12/cond/ReadVariableOp/Switch", "op": "Switch", "input": ["batch_normalization_12/gamma", "keras_learning_phase"], "attr": {"T": {"type": "DT_FLOAT"}}}, {"name": "batch_normalization_12/cond/ReadVariableOp_1/Switch", "op": "Switch", "input": ["batch_normalization_12/beta", "keras_learning_phase"], "attr": {"T": {"type": "DT_FLOAT"}}}, {"name": "batch_normalization_13/cond/ReadVariableOp/Switch", "op": "Switch", "input": ["batch_normalization_13/gamma", "keras_learning_phase"], "attr": {"T": {"type": "DT_FLOAT"}}}, {"name": "batch_normalization_13/cond/ReadVariableOp_1/Switch", "op": "Switch", "input": ["batch_normalization_13/beta", "keras_learning_phase"], "attr": {"T": {"type": "DT_FLOAT"}}}, {"name": "batch_normalization_14/cond/ReadVariableOp/Switch", "op": "Switch", "input": ["batch_normalization_14/gamma", "keras_learning_phase"], "attr": {"T": {"type": "DT_FLOAT"}}}, {"name": "batch_normalization_14/cond/ReadVariableOp_1/Switch", "op": "Switch", "input": ["batch_normalization_14/beta", "keras_learning_phase"], "attr": {"T": {"type": "DT_FLOAT"}}}, {"name": "batch_normalization_15/cond/ReadVariableOp/Switch", "op": "Switch", "input": ["batch_normalization_15/gamma", "keras_learning_phase"], "attr": {"T": {"type": "DT_FLOAT"}}}, {"name": "batch_normalization_15/cond/ReadVariableOp_1/Switch", "op": "Switch", "input": ["batch_normalization_15/beta", "keras_learning_phase"], "attr": {"T": {"type": "DT_FLOAT"}}}, {"name": "batch_normalization_16/cond/ReadVariableOp/Switch", "op": "Switch", "input": ["batch_normalization_16/gamma", "keras_learning_phase"], "attr": {"T": {"type": "DT_FLOAT"}}}, {"name": "batch_normalization_16/cond/ReadVariableOp_1/Switch", "op": "Switch", "input": ["batch_normalization_16/beta", "keras_learning_phase"], "attr": {"T": {"type": "DT_FLOAT"}}}, {"name": "batch_normalization_18/cond/ReadVariableOp/Switch", "op": "Switch", "input": ["batch_normalization_18/gamma", "keras_learning_phase"], "attr": {"T": {"type": "DT_FLOAT"}}}, {"name": "batch_normalization_18/cond/ReadVariableOp_1/Switch", "op": "Switch", "input": ["batch_normalization_18/beta", "keras_learning_phase"], "attr": {"T": {"type": "DT_FLOAT"}}}, {"name": "batch_normalization_19/cond/ReadVariableOp/Switch", "op": "Switch", "input": ["batch_normalization_19/gamma", "keras_learning_phase"], "attr": {"T": {"type": "DT_FLOAT"}}}, {"name": "batch_normalization_19/cond/ReadVariableOp_1/Switch", "op": "Switch", "input": ["batch_normalization_19/beta", "keras_learning_phase"], "attr": {"T": {"type": "DT_FLOAT"}}}, {"name": "batch_normalization_20/cond/ReadVariableOp/Switch", "op": "Switch", "input": ["batch_normalization_20/gamma", "keras_learning_phase"], "attr": {"T": {"type": "DT_FLOAT"}}}, {"name": "batch_normalization_20/cond/ReadVariableOp_1/Switch", "op": "Switch", "input": ["batch_normalization_20/beta", "keras_learning_phase"], "attr": {"T": {"type": "DT_FLOAT"}}}, {"name": "batch_normalization_21/cond/ReadVariableOp/Switch", "op": "Switch", "input": ["batch_normalization_21/gamma", "keras_learning_phase"], "attr": {"T": {"type": "DT_FLOAT"}}}, {"name": "batch_normalization_21/cond/ReadVariableOp_1/Switch", "op": "Switch", "input": ["batch_normalization_21/beta", "keras_learning_phase"], "attr": {"T": {"type": "DT_FLOAT"}}}, {"name": "batch_normalization_22/cond/ReadVariableOp/Switch", "op": "Switch", "input": ["batch_normalization_22/gamma", "keras_learning_phase"], "attr": {"T": {"type": "DT_FLOAT"}}}, {"name": "batch_normalization_22/cond/ReadVariableOp_1/Switch", "op": "Switch", "input": ["batch_normalization_22/beta", "keras_learning_phase"], "attr": {"T": {"type": "DT_FLOAT"}}}, {"name": "batch_normalization_23/cond/ReadVariableOp/Switch", "op": "Switch", "input": ["batch_normalization_23/gamma", "keras_learning_phase"], "attr": {"T": {"type": "DT_FLOAT"}}}, {"name": "batch_normalization_23/cond/ReadVariableOp_1/Switch", "op": "Switch", "input": ["batch_normalization_23/beta", "keras_learning_phase"], "attr": {"T": {"type": "DT_FLOAT"}}}, {"name": "strided_slice_13/stack_1", "op": "Pack", "input": ["strided_slice_12", "stft/frame/split/split_dim"], "attr": {"T": {"type": "DT_INT32"}, "axis": {"i": "0"}, "N": {"i": "2"}}}, {"name": "stft/frame/split", "op": "SplitV", "input": ["stft/frame/Shape", "stft/frame/packed", "stft/frame/split/split_dim"], "attr": {"num_split": {"i": "3"}, "Tlen": {"type": "DT_INT32"}, "T": {"type": "DT_INT32"}}}, {"name": "batch_normalization/cond/switch_t", "op": "Identity", "input": ["batch_normalization/cond/Switch:1"], "attr": {"T": {"type": "DT_BOOL"}}}, {"name": "stft/frame/Reshape", "op": "Reshape", "input": ["stft/frame/split:1", "stft/frame/Reshape/shape"], "attr": {"T": {"type": "DT_INT32"}, "Tshape": {"type": "DT_INT32"}}}, {"name": "batch_normalization/cond/Const", "op": "Const", "input": ["^batch_normalization/cond/switch_t"], "attr": {"value": {"tensor": {"dtype": "DT_FLOAT", "tensorShape": {"dim": [{}]}}}, "dtype": {"type": "DT_FLOAT"}}}, {"name": "dropout/cond/dropout/rate", "op": "Const", "input": ["^batch_normalization/cond/switch_t"], "attr": {"value": {"tensor": {"dtype": "DT_FLOAT", "tensorShape": {}}}, "dtype": {"type": "DT_FLOAT"}}}, {"name": "dropout/cond/dropout/truediv", "op": "Const", "input": ["^batch_normalization/cond/switch_t"], "attr": {"dtype": {"type": "DT_FLOAT"}, "value": {"tensor": {"dtype": "DT_FLOAT", "tensorShape": {}}}}}, {"name": "stft/frame/Neg", "op": "Neg", "input": ["stft/frame/Reshape"], "attr": {"T": {"type": "DT_INT32"}}}, {"name": "stft/frame/floordiv", "op": "FloorDiv", "input": ["stft/frame/Neg", "stft/frame_step"], "attr": {"T": {"type": "DT_INT32"}}}, {"name": "stft/frame/Neg_1", "op": "Neg", "input": ["stft/frame/floordiv"], "attr": {"T": {"type": "DT_INT32"}}}, {"name": "stft/frame/concat_3/values_1", "op": "Pack", "input": ["stft/frame/Neg_1", "stft/frame_length"], "attr": {"T": {"type": "DT_INT32"}, "axis": {"i": "0"}, "N": {"i": "2"}}}, {"name": "stft/frame/sub_2", "op": "Sub", "input": ["stft/frame/Neg_1", "stft/frame/strided_slice"], "attr": {"T": {"type": "DT_INT32"}}}, {"name": "stft/frame/range_1", "op": "Range", "input": ["stft/frame/split/split_dim", "stft/frame/Neg_1", "stft/frame/strided_slice"], "attr": {"Tidx": {"type": "DT_INT32"}}}, {"name": "stft/frame/Reshape_2/shape", "op": "Pack", "input": ["stft/frame/Neg_1", "stft/frame/strided_slice"], "attr": {"T": {"type": "DT_INT32"}, "axis": {"i": "0"}, "N": {"i": "2"}}}, {"name": "stft/frame/concat_3", "op": "ConcatV2", "input": ["stft/frame/split", "stft/frame/concat_3/values_1", "stft/frame/split:2", "stft/frame/split/split_dim"], "attr": {"T": {"type": "DT_INT32"}, "N": {"i": "3"}, "Tidx": {"type": "DT_INT32"}}}, {"name": "stft/frame/mul", "op": "Mul", "input": ["stft/frame/sub_2", "stft/frame_step"], "attr": {"T": {"type": "DT_INT32"}}}, {"name": "stft/frame/Reshape_2", "op": "Reshape", "input": ["stft/frame/range_1", "stft/frame/Reshape_2/shape"], "attr": {"T": {"type": "DT_INT32"}, "Tshape": {"type": "DT_INT32"}}}, {"name": "stft/frame/add_1", "op": "Add", "input": ["stft/frame/mul", "stft/frame_length"], "attr": {"T": {"type": "DT_INT32"}}}, {"name": "stft/frame/add_3", "op": "Add", "input": ["stft/frame/Reshape_2", "stft/frame/Reshape_3"], "attr": {"T": {"type": "DT_INT32"}}}, {"name": "stft/frame/sub_3", "op": "Sub", "input": ["stft/frame/add_1", "stft/frame/Reshape"], "attr": {"T": {"type": "DT_INT32"}}}, {"name": "stft/frame/Maximum", "op": "Maximum", "input": ["stft/frame/split/split_dim", "stft/frame/sub_3"], "attr": {"T": {"type": "DT_INT32"}}}, {"name": "stft/frame/concat/values_1/0", "op": "Pack", "input": ["stft/frame/split/split_dim", "stft/frame/Maximum"], "attr": {"axis": {"i": "0"}, "N": {"i": "2"}, "T": {"type": "DT_INT32"}}}, {"name": "ConstantFolding/stft/frame/concat/values_1_const_axis", "op": "Const", "input": ["^stft/frame/concat/values_1/0"], "attr": {"value": {"tensor": {"dtype": "DT_INT32", "tensorShape": {}}}, "dtype": {"type": "DT_INT32"}}}, {"name": "stft/frame/concat/values_1", "op": "ExpandDims", "input": ["stft/frame/concat/values_1/0", "ConstantFolding/stft/frame/concat/values_1_const_axis"], "attr": {"Tdim": {"type": "DT_INT32"}, "T": {"type": "DT_INT32"}}}, {"name": "stft/frame/concat", "op": "ConcatV2", "input": ["stft/frame/zeros", "stft/frame/concat/values_1", "stft/frame/zeros_1", "stft/frame/split/split_dim"], "attr": {"T": {"type": "DT_INT32"}, "N": {"i": "3"}, "Tidx": {"type": "DT_INT32"}}}, {"name": "stft/frame/PadV2", "op": "PadV2", "input": ["transpose", "stft/frame/concat", "stft/frame/Const"], "attr": {"Tpaddings": {"type": "DT_INT32"}, "T": {"type": "DT_FLOAT"}}}, {"name": "stft/frame/Shape_1", "op": "Shape", "input": ["stft/frame/PadV2"], "attr": {"T": {"type": "DT_FLOAT"}, "out_type": {"type": "DT_INT32"}}}, {"name": "stft/frame/strided_slice_1", "op": "StridedSlice", "input": ["stft/frame/Shape_1", "stft/frame/strided_slice_1/stack", "stft/frame/strided_slice_1/stack_1", "stft/frame/strided_slice_1/stack"], "attr": {"T": {"type": "DT_INT32"}, "Index": {"type": "DT_INT32"}, "shrink_axis_mask": {"i": "1"}, "ellipsis_mask": {"i": "0"}, "begin_mask": {"i": "0"}, "new_axis_mask": {"i": "0"}, "end_mask": {"i": "0"}}}, {"name": "stft/frame/floordiv_3", "op": "FloorDiv", "input": ["stft/frame/strided_slice_1", "stft/frame_step"], "attr": {"T": {"type": "DT_INT32"}}}, {"name": "stft/frame/mul_1", "op": "Mul", "input": ["stft/frame/floordiv_3", "stft/frame_step"], "attr": {"T": {"type": "DT_INT32"}}}, {"name": "stft/frame/concat_2/values_1", "op": "Pack", "input": ["stft/frame/floordiv_3", "stft/frame_step"], "attr": {"N": {"i": "2"}, "T": {"type": "DT_INT32"}, "axis": {"i": "0"}}}, {"name": "ConstantFolding/stft/frame/concat_1/values_1_const_axis", "op": "Const", "input": ["^stft/frame/mul_1"], "attr": {"value": {"tensor": {"dtype": "DT_INT32", "tensorShape": {}}}, "dtype": {"type": "DT_INT32"}}}, {"name": "stft/frame/concat_2", "op": "ConcatV2", "input": ["stft/frame/split", "stft/frame/concat_2/values_1", "stft/frame/split:2", "stft/frame/split/split_dim"], "attr": {"T": {"type": "DT_INT32"}, "N": {"i": "3"}, "Tidx": {"type": "DT_INT32"}}}, {"name": "stft/frame/concat_1/values_1", "op": "ExpandDims", "input": ["stft/frame/mul_1", "ConstantFolding/stft/frame/concat_1/values_1_const_axis"], "attr": {"Tdim": {"type": "DT_INT32"}, "T": {"type": "DT_INT32"}}}, {"name": "stft/frame/concat_1", "op": "ConcatV2", "input": ["stft/frame/split", "stft/frame/concat_1/values_1", "stft/frame/split:2", "stft/frame/split/split_dim"], "attr": {"T": {"type": "DT_INT32"}, "N": {"i": "3"}, "Tidx": {"type": "DT_INT32"}}}, {"name": "stft/frame/StridedSlice", "op": "StridedSlice", "input": ["stft/frame/PadV2", "stft/frame/zeros_like", "stft/frame/concat_1", "inverse_stft_1/overlap_and_add/strided_slice_4/stack_2"], "attr": {"Index": {"type": "DT_INT32"}, "T": {"type": "DT_FLOAT"}, "shrink_axis_mask": {"i": "0"}, "begin_mask": {"i": "0"}, "ellipsis_mask": {"i": "0"}, "new_axis_mask": {"i": "0"}, "end_mask": {"i": "0"}}}, {"name": "stft/frame/Reshape_1", "op": "Reshape", "input": ["stft/frame/StridedSlice", "stft/frame/concat_2"], "attr": {"T": {"type": "DT_FLOAT"}, "Tshape": {"type": "DT_INT32"}}}, {"name": "stft/frame/GatherV2", "op": "GatherV2", "input": ["stft/frame/Reshape_1", "stft/frame/add_3", "stft/frame/strided_slice"], "attr": {"Tindices": {"type": "DT_INT32"}, "Tparams": {"type": "DT_FLOAT"}, "Taxis": {"type": "DT_INT32"}, "batch_dims": {"i": "0"}}}, {"name": "stft/frame/Reshape_4", "op": "Reshape", "input": ["stft/frame/GatherV2", "stft/frame/concat_3"], "attr": {"T": {"type": "DT_FLOAT"}, "Tshape": {"type": "DT_INT32"}}}, {"name": "stft/mul", "op": "Mul", "input": ["stft/frame/Reshape_4", "stft/hann_window/sub_2"], "attr": {"T": {"type": "DT_FLOAT"}}}, {"name": "stft/rfft", "op": "RFFT", "input": ["stft/mul", "stft/rfft/packed"]}, {"name": "transpose_1", "op": "Transpose", "input": ["stft/rfft", "transpose_1/perm"], "attr": {"T": {"type": "DT_COMPLEX64"}, "Tperm": {"type": "DT_INT32"}}}, {"name": "Shape", "op": "Shape", "input": ["transpose_1"], "attr": {"T": {"type": "DT_COMPLEX64"}, "out_type": {"type": "DT_INT32"}}}, {"name": "strided_slice", "op": "StridedSlice", "input": ["Shape", "strided_slice/stack", "stft/frame/strided_slice_1/stack", "stft/frame/strided_slice_1/stack"], "attr": {"new_axis_mask": {"i": "0"}, "end_mask": {"i": "0"}, "Index": {"type": "DT_INT32"}, "T": {"type": "DT_INT32"}, "shrink_axis_mask": {"i": "1"}, "begin_mask": {"i": "0"}, "ellipsis_mask": {"i": "0"}}}, {"name": "FloorMod", "op": "FloorMod", "input": ["strided_slice", "FloorMod/y"], "attr": {"T": {"type": "DT_INT32"}}}, {"name": "strided_slice_11/stack_1", "op": "Pack", "input": ["strided_slice", "stft/frame/split/split_dim"], "attr": {"T": {"type": "DT_INT32"}, "axis": {"i": "0"}, "N": {"i": "2"}}}, {"name": "sub", "op": "Sub", "input": ["FloorMod/y", "FloorMod"], "attr": {"T": {"type": "DT_INT32"}}}, {"name": "FloorMod_1", "op": "FloorMod", "input": ["sub", "FloorMod/y"], "attr": {"T": {"type": "DT_INT32"}}}, {"name": "Pad/paddings/0", "op": "Pack", "input": ["stft/frame/split/split_dim", "FloorMod_1"], "attr": {"T": {"type": "DT_INT32"}, "axis": {"i": "0"}, "N": {"i": "2"}}}, {"name": "Pad/paddings", "op": "Pack", "input": ["Pad/paddings/0", "stft/frame/zeros_like", "stft/frame/zeros_like"], "attr": {"T": {"type": "DT_INT32"}, "axis": {"i": "0"}, "N": {"i": "3"}}}, {"name": "Pad", "op": "Pad", "input": ["transpose_1", "Pad/paddings"], "attr": {"Tpaddings": {"type": "DT_INT32"}, "T": {"type": "DT_COMPLEX64"}}}, {"name": "Shape_1", "op": "Shape", "input": ["Pad"], "attr": {"T": {"type": "DT_COMPLEX64"}, "out_type": {"type": "DT_INT32"}}}, {"name": "strided_slice_1", "op": "StridedSlice", "input": ["Shape_1", "strided_slice/stack", "stft/frame/strided_slice_1/stack", "stft/frame/strided_slice_1/stack"], "attr": {"shrink_axis_mask": {"i": "1"}, "ellipsis_mask": {"i": "0"}, "begin_mask": {"i": "0"}, "new_axis_mask": {"i": "0"}, "end_mask": {"i": "0"}, "Index": {"type": "DT_INT32"}, "T": {"type": "DT_INT32"}}}, {"name": "strided_slice_2", "op": "StridedSlice", "input": ["Shape_1", "stft/frame/strided_slice_1/stack", "strided_slice/stack", "stft/frame/strided_slice_1/stack"], "attr": {"Index": {"type": "DT_INT32"}, "T": {"type": "DT_INT32"}, "shrink_axis_mask": {"i": "0"}, "ellipsis_mask": {"i": "0"}, "begin_mask": {"i": "0"}, "new_axis_mask": {"i": "0"}, "end_mask": {"i": "1"}}}, {"name": "add", "op": "Add", "input": ["FloorMod/y", "strided_slice_1"], "attr": {"T": {"type": "DT_INT32"}}}, {"name": "sub_1", "op": "Sub", "input": ["add", "stft/frame/strided_slice"], "attr": {"T": {"type": "DT_INT32"}}}, {"name": "floordiv", "op": "FloorDiv", "input": ["sub_1", "FloorMod/y"], "attr": {"T": {"type": "DT_INT32"}}}, {"name": "concat/values_0", "op": "Pack", "input": ["floordiv", "FloorMod/y"], "attr": {"T": {"type": "DT_INT32"}, "axis": {"i": "0"}, "N": {"i": "2"}}}, {"name": "concat", "op": "ConcatV2", "input": ["concat/values_0", "strided_slice_2", "stft/frame/split/split_dim"], "attr": {"T": {"type": "DT_INT32"}, "N": {"i": "2"}, "Tidx": {"type": "DT_INT32"}}}, {"name": "Reshape", "op": "Reshape", "input": ["Pad", "concat"], "attr": {"T": {"type": "DT_COMPLEX64"}, "Tshape": {"type": "DT_INT32"}}}, {"name": "Abs", "op": "ComplexAbs", "input": ["Reshape"], "attr": {"Tout": {"type": "DT_FLOAT"}, "T": {"type": "DT_COMPLEX64"}}}, {"name": "strided_slice_3", "op": "StridedSlice", "input": ["Abs", "strided_slice_3/stack", "strided_slice_3/stack_1", "strided_slice_3/stack_2"], "attr": {"end_mask": {"i": "11"}, "T": {"type": "DT_FLOAT"}, "Index": {"type": "DT_INT32"}, "shrink_axis_mask": {"i": "0"}, "begin_mask": {"i": "15"}, "ellipsis_mask": {"i": "0"}, "new_axis_mask": {"i": "0"}}}, {"name": "conv2d/BiasAdd", "op": "_FusedConv2D", "input": ["strided_slice_3", "conv2d/kernel", "conv2d/bias"], "device": "/device:CPU:0", "attr": {"epsilon": {"f": 0.0}, "padding": {"s": "U0FNRQ=="}, "fused_ops": {"list": {"s": ["Qmlhc0FkZA=="]}}, "dilations": {"list": {"i": ["1", "1", "1", "1"]}}, "T": {"type": "DT_FLOAT"}, "strides": {"list": {"i": ["1", "2", "2", "1"]}}, "data_format": {"s": "TkhXQw=="}, "use_cudnn_on_gpu": {"b": true}, "explicit_paddings": {"list": {}}, "num_args": {"i": "1"}}}, {"name": "conv2d_7/BiasAdd", "op": "_FusedConv2D", "input": ["strided_slice_3", "conv2d_7/kernel", "conv2d_7/bias"], "device": "/device:CPU:0", "attr": {"strides": {"list": {"i": ["1", "2", "2", "1"]}}, "data_format": {"s": "TkhXQw=="}, "explicit_paddings": {"list": {}}, "use_cudnn_on_gpu": {"b": true}, "num_args": {"i": "1"}, "epsilon": {"f": 0.0}, "padding": {"s": "U0FNRQ=="}, "fused_ops": {"list": {"s": ["Qmlhc0FkZA=="]}}, "dilations": {"list": {"i": ["1", "1", "1", "1"]}}, "T": {"type": "DT_FLOAT"}}}, {"name": "batch_normalization/cond/FusedBatchNorm/Switch", "op": "Switch", "input": ["conv2d/BiasAdd", "keras_learning_phase"], "attr": {"T": {"type": "DT_FLOAT"}}}, {"name": "batch_normalization_12/cond/FusedBatchNorm/Switch", "op": "Switch", "input": ["conv2d_7/BiasAdd", "keras_learning_phase"], "attr": {"T": {"type": "DT_FLOAT"}}}, {"name": "batch_normalization/cond/FusedBatchNorm_1", "op": "FusedBatchNorm", "input": ["batch_normalization/cond/FusedBatchNorm/Switch", "batch_normalization/cond/ReadVariableOp/Switch", "batch_normalization/cond/ReadVariableOp_1/Switch", "batch_normalization/cond/FusedBatchNorm_1/ReadVariableOp/Switch", "batch_normalization/cond/FusedBatchNorm_1/ReadVariableOp_1/Switch"], "attr": {"is_training": {"b": false}, "epsilon": {"f": 0.0010000000474974513}, "T": {"type": "DT_FLOAT"}, "data_format": {"s": "TkhXQw=="}}}, {"name": "batch_normalization/cond/FusedBatchNorm", "op": "FusedBatchNorm", "input": ["batch_normalization/cond/FusedBatchNorm/Switch:1", "batch_normalization/cond/ReadVariableOp/Switch:1", "batch_normalization/cond/ReadVariableOp_1/Switch:1", "batch_normalization/cond/Const", "batch_normalization/cond/Const"], "attr": {"T": {"type": "DT_FLOAT"}, "data_format": {"s": "TkhXQw=="}, "is_training": {"b": true}, "epsilon": {"f": 0.0010000000474974513}}}, {"name": "batch_normalization_12/cond/FusedBatchNorm_1", "op": "FusedBatchNorm", "input": ["batch_normalization_12/cond/FusedBatchNorm/Switch", "batch_normalization_12/cond/ReadVariableOp/Switch", "batch_normalization_12/cond/ReadVariableOp_1/Switch", "batch_normalization/cond/FusedBatchNorm_1/ReadVariableOp/Switch", "batch_normalization/cond/FusedBatchNorm_1/ReadVariableOp_1/Switch"], "attr": {"T": {"type": "DT_FLOAT"}, "data_format": {"s": "TkhXQw=="}, "is_training": {"b": false}, "epsilon": {"f": 0.0010000000474974513}}}, {"name": "batch_normalization_12/cond/FusedBatchNorm", "op": "FusedBatchNorm", "input": ["batch_normalization_12/cond/FusedBatchNorm/Switch:1", "batch_normalization_12/cond/ReadVariableOp/Switch:1", "batch_normalization_12/cond/ReadVariableOp_1/Switch:1", "batch_normalization/cond/Const", "batch_normalization/cond/Const"], "attr": {"epsilon": {"f": 0.0010000000474974513}, "T": {"type": "DT_FLOAT"}, "data_format": {"s": "TkhXQw=="}, "is_training": {"b": true}}}, {"name": "batch_normalization/cond/Merge", "op": "Merge", "input": ["batch_normalization/cond/FusedBatchNorm_1", "batch_normalization/cond/FusedBatchNorm"], "attr": {"N": {"i": "2"}, "T": {"type": "DT_FLOAT"}}}, {"name": "batch_normalization_12/cond/Merge", "op": "Merge", "input": ["batch_normalization_12/cond/FusedBatchNorm_1", "batch_normalization_12/cond/FusedBatchNorm"], "attr": {"T": {"type": "DT_FLOAT"}, "N": {"i": "2"}}}, {"name": "leaky_re_lu/LeakyRelu", "op": "LeakyRelu", "input": ["batch_normalization/cond/Merge"], "attr": {"T": {"type": "DT_FLOAT"}, "alpha": {"f": 0.20000000298023224}}}, {"name": "leaky_re_lu_1_1/LeakyRelu", "op": "LeakyRelu", "input": ["batch_normalization_12/cond/Merge"], "attr": {"T": {"type": "DT_FLOAT"}, "alpha": {"f": 0.20000000298023224}}}, {"name": "conv2d_1/BiasAdd", "op": "_FusedConv2D", "input": ["leaky_re_lu/LeakyRelu", "conv2d_1/kernel", "conv2d_1/bias"], "device": "/device:CPU:0", "attr": {"dilations": {"list": {"i": ["1", "1", "1", "1"]}}, "T": {"type": "DT_FLOAT"}, "strides": {"list": {"i": ["1", "2", "2", "1"]}}, "data_format": {"s": "TkhXQw=="}, "use_cudnn_on_gpu": {"b": true}, "explicit_paddings": {"list": {}}, "num_args": {"i": "1"}, "epsilon": {"f": 0.0}, "padding": {"s": "U0FNRQ=="}, "fused_ops": {"list": {"s": ["Qmlhc0FkZA=="]}}}}, {"name": "conv2d_8/BiasAdd", "op": "_FusedConv2D", "input": ["leaky_re_lu_1_1/LeakyRelu", "conv2d_8/kernel", "conv2d_8/bias"], "device": "/device:CPU:0", "attr": {"dilations": {"list": {"i": ["1", "1", "1", "1"]}}, "T": {"type": "DT_FLOAT"}, "data_format": {"s": "TkhXQw=="}, "strides": {"list": {"i": ["1", "2", "2", "1"]}}, "explicit_paddings": {"list": {}}, "use_cudnn_on_gpu": {"b": true}, "num_args": {"i": "1"}, "epsilon": {"f": 0.0}, "padding": {"s": "U0FNRQ=="}, "fused_ops": {"list": {"s": ["Qmlhc0FkZA=="]}}}}, {"name": "batch_normalization_1/cond/FusedBatchNorm/Switch", "op": "Switch", "input": ["conv2d_1/BiasAdd", "keras_learning_phase"], "attr": {"T": {"type": "DT_FLOAT"}}}, {"name": "batch_normalization_13/cond/FusedBatchNorm/Switch", "op": "Switch", "input": ["conv2d_8/BiasAdd", "keras_learning_phase"], "attr": {"T": {"type": "DT_FLOAT"}}}, {"name": "batch_normalization_1/cond/FusedBatchNorm_1", "op": "FusedBatchNorm", "input": ["batch_normalization_1/cond/FusedBatchNorm/Switch", "batch_normalization_1/cond/ReadVariableOp/Switch", "batch_normalization_1/cond/ReadVariableOp_1/Switch", "batch_normalization_1/cond/FusedBatchNorm_1/ReadVariableOp/Switch", "batch_normalization_1/cond/FusedBatchNorm_1/ReadVariableOp_1/Switch"], "attr": {"epsilon": {"f": 0.0010000000474974513}, "T": {"type": "DT_FLOAT"}, "data_format": {"s": "TkhXQw=="}, "is_training": {"b": false}}}, {"name": "batch_normalization_1/cond/FusedBatchNorm", "op": "FusedBatchNorm", "input": ["batch_normalization_1/cond/FusedBatchNorm/Switch:1", "batch_normalization_1/cond/ReadVariableOp/Switch:1", "batch_normalization_1/cond/ReadVariableOp_1/Switch:1", "batch_normalization/cond/Const", "batch_normalization/cond/Const"], "attr": {"epsilon": {"f": 0.0010000000474974513}, "T": {"type": "DT_FLOAT"}, "data_format": {"s": "TkhXQw=="}, "is_training": {"b": true}}}, {"name": "batch_normalization_13/cond/FusedBatchNorm_1", "op": "FusedBatchNorm", "input": ["batch_normalization_13/cond/FusedBatchNorm/Switch", "batch_normalization_13/cond/ReadVariableOp/Switch", "batch_normalization_13/cond/ReadVariableOp_1/Switch", "batch_normalization_1/cond/FusedBatchNorm_1/ReadVariableOp/Switch", "batch_normalization_1/cond/FusedBatchNorm_1/ReadVariableOp_1/Switch"], "attr": {"epsilon": {"f": 0.0010000000474974513}, "T": {"type": "DT_FLOAT"}, "data_format": {"s": "TkhXQw=="}, "is_training": {"b": false}}}, {"name": "batch_normalization_13/cond/FusedBatchNorm", "op": "FusedBatchNorm", "input": ["batch_normalization_13/cond/FusedBatchNorm/Switch:1", "batch_normalization_13/cond/ReadVariableOp/Switch:1", "batch_normalization_13/cond/ReadVariableOp_1/Switch:1", "batch_normalization/cond/Const", "batch_normalization/cond/Const"], "attr": {"data_format": {"s": "TkhXQw=="}, "is_training": {"b": true}, "epsilon": {"f": 0.0010000000474974513}, "T": {"type": "DT_FLOAT"}}}, {"name": "batch_normalization_1/cond/Merge", "op": "Merge", "input": ["batch_normalization_1/cond/FusedBatchNorm_1", "batch_normalization_1/cond/FusedBatchNorm"], "attr": {"T": {"type": "DT_FLOAT"}, "N": {"i": "2"}}}, {"name": "batch_normalization_13/cond/Merge", "op": "Merge", "input": ["batch_normalization_13/cond/FusedBatchNorm_1", "batch_normalization_13/cond/FusedBatchNorm"], "attr": {"T": {"type": "DT_FLOAT"}, "N": {"i": "2"}}}, {"name": "leaky_re_lu_1/LeakyRelu", "op": "LeakyRelu", "input": ["batch_normalization_1/cond/Merge"], "attr": {"T": {"type": "DT_FLOAT"}, "alpha": {"f": 0.20000000298023224}}}, {"name": "leaky_re_lu_1_2/LeakyRelu", "op": "LeakyRelu", "input": ["batch_normalization_13/cond/Merge"], "attr": {"T": {"type": "DT_FLOAT"}, "alpha": {"f": 0.20000000298023224}}}, {"name": "conv2d_2/BiasAdd", "op": "_FusedConv2D", "input": ["leaky_re_lu_1/LeakyRelu", "conv2d_2/kernel", "conv2d_2/bias"], "device": "/device:CPU:0", "attr": {"data_format": {"s": "TkhXQw=="}, "strides": {"list": {"i": ["1", "2", "2", "1"]}}, "use_cudnn_on_gpu": {"b": true}, "explicit_paddings": {"list": {}}, "num_args": {"i": "1"}, "epsilon": {"f": 0.0}, "padding": {"s": "U0FNRQ=="}, "fused_ops": {"list": {"s": ["Qmlhc0FkZA=="]}}, "dilations": {"list": {"i": ["1", "1", "1", "1"]}}, "T": {"type": "DT_FLOAT"}}}, {"name": "conv2d_9/BiasAdd", "op": "_FusedConv2D", "input": ["leaky_re_lu_1_2/LeakyRelu", "conv2d_9/kernel", "conv2d_9/bias"], "device": "/device:CPU:0", "attr": {"epsilon": {"f": 0.0}, "padding": {"s": "U0FNRQ=="}, "fused_ops": {"list": {"s": ["Qmlhc0FkZA=="]}}, "dilations": {"list": {"i": ["1", "1", "1", "1"]}}, "T": {"type": "DT_FLOAT"}, "strides": {"list": {"i": ["1", "2", "2", "1"]}}, "data_format": {"s": "TkhXQw=="}, "explicit_paddings": {"list": {}}, "use_cudnn_on_gpu": {"b": true}, "num_args": {"i": "1"}}}, {"name": "batch_normalization_2/cond/FusedBatchNorm/Switch", "op": "Switch", "input": ["conv2d_2/BiasAdd", "keras_learning_phase"], "attr": {"T": {"type": "DT_FLOAT"}}}, {"name": "batch_normalization_14/cond/FusedBatchNorm/Switch", "op": "Switch", "input": ["conv2d_9/BiasAdd", "keras_learning_phase"], "attr": {"T": {"type": "DT_FLOAT"}}}, {"name": "batch_normalization_2/cond/FusedBatchNorm_1", "op": "FusedBatchNorm", "input": ["batch_normalization_2/cond/FusedBatchNorm/Switch", "batch_normalization_2/cond/ReadVariableOp/Switch", "batch_normalization_2/cond/ReadVariableOp_1/Switch", "batch_normalization_2/cond/FusedBatchNorm_1/ReadVariableOp/Switch", "batch_normalization_2/cond/FusedBatchNorm_1/ReadVariableOp_1/Switch"], "attr": {"data_format": {"s": "TkhXQw=="}, "is_training": {"b": false}, "epsilon": {"f": 0.0010000000474974513}, "T": {"type": "DT_FLOAT"}}}, {"name": "batch_normalization_2/cond/FusedBatchNorm", "op": "FusedBatchNorm", "input": ["batch_normalization_2/cond/FusedBatchNorm/Switch:1", "batch_normalization_2/cond/ReadVariableOp/Switch:1", "batch_normalization_2/cond/ReadVariableOp_1/Switch:1", "batch_normalization/cond/Const", "batch_normalization/cond/Const"], "attr": {"epsilon": {"f": 0.0010000000474974513}, "T": {"type": "DT_FLOAT"}, "data_format": {"s": "TkhXQw=="}, "is_training": {"b": true}}}, {"name": "batch_normalization_14/cond/FusedBatchNorm_1", "op": "FusedBatchNorm", "input": ["batch_normalization_14/cond/FusedBatchNorm/Switch", "batch_normalization_14/cond/ReadVariableOp/Switch", "batch_normalization_14/cond/ReadVariableOp_1/Switch", "batch_normalization_2/cond/FusedBatchNorm_1/ReadVariableOp/Switch", "batch_normalization_2/cond/FusedBatchNorm_1/ReadVariableOp_1/Switch"], "attr": {"data_format": {"s": "TkhXQw=="}, "is_training": {"b": false}, "epsilon": {"f": 0.0010000000474974513}, "T": {"type": "DT_FLOAT"}}}, {"name": "batch_normalization_14/cond/FusedBatchNorm", "op": "FusedBatchNorm", "input": ["batch_normalization_14/cond/FusedBatchNorm/Switch:1", "batch_normalization_14/cond/ReadVariableOp/Switch:1", "batch_normalization_14/cond/ReadVariableOp_1/Switch:1", "batch_normalization/cond/Const", "batch_normalization/cond/Const"], "attr": {"epsilon": {"f": 0.0010000000474974513}, "T": {"type": "DT_FLOAT"}, "data_format": {"s": "TkhXQw=="}, "is_training": {"b": true}}}, {"name": "batch_normalization_2/cond/Merge", "op": "Merge", "input": ["batch_normalization_2/cond/FusedBatchNorm_1", "batch_normalization_2/cond/FusedBatchNorm"], "attr": {"T": {"type": "DT_FLOAT"}, "N": {"i": "2"}}}, {"name": "batch_normalization_14/cond/Merge", "op": "Merge", "input": ["batch_normalization_14/cond/FusedBatchNorm_1", "batch_normalization_14/cond/FusedBatchNorm"], "attr": {"T": {"type": "DT_FLOAT"}, "N": {"i": "2"}}}, {"name": "leaky_re_lu_2/LeakyRelu", "op": "LeakyRelu", "input": ["batch_normalization_2/cond/Merge"], "attr": {"T": {"type": "DT_FLOAT"}, "alpha": {"f": 0.20000000298023224}}}, {"name": "leaky_re_lu_1_3/LeakyRelu", "op": "LeakyRelu", "input": ["batch_normalization_14/cond/Merge"], "attr": {"T": {"type": "DT_FLOAT"}, "alpha": {"f": 0.20000000298023224}}}, {"name": "conv2d_3/BiasAdd", "op": "_FusedConv2D", "input": ["leaky_re_lu_2/LeakyRelu", "conv2d_3/kernel", "conv2d_3/bias"], "device": "/device:CPU:0", "attr": {"dilations": {"list": {"i": ["1", "1", "1", "1"]}}, "T": {"type": "DT_FLOAT"}, "data_format": {"s": "TkhXQw=="}, "strides": {"list": {"i": ["1", "2", "2", "1"]}}, "explicit_paddings": {"list": {}}, "use_cudnn_on_gpu": {"b": true}, "num_args": {"i": "1"}, "epsilon": {"f": 0.0}, "padding": {"s": "U0FNRQ=="}, "fused_ops": {"list": {"s": ["Qmlhc0FkZA=="]}}}}, {"name": "conv2d_10/BiasAdd", "op": "_FusedConv2D", "input": ["leaky_re_lu_1_3/LeakyRelu", "conv2d_10/kernel", "conv2d_10/bias"], "device": "/device:CPU:0", "attr": {"dilations": {"list": {"i": ["1", "1", "1", "1"]}}, "T": {"type": "DT_FLOAT"}, "data_format": {"s": "TkhXQw=="}, "strides": {"list": {"i": ["1", "2", "2", "1"]}}, "explicit_paddings": {"list": {}}, "use_cudnn_on_gpu": {"b": true}, "num_args": {"i": "1"}, "epsilon": {"f": 0.0}, "padding": {"s": "U0FNRQ=="}, "fused_ops": {"list": {"s": ["Qmlhc0FkZA=="]}}}}, {"name": "batch_normalization_3/cond/FusedBatchNorm/Switch", "op": "Switch", "input": ["conv2d_3/BiasAdd", "keras_learning_phase"], "attr": {"T": {"type": "DT_FLOAT"}}}, {"name": "batch_normalization_15/cond/FusedBatchNorm/Switch", "op": "Switch", "input": ["conv2d_10/BiasAdd", "keras_learning_phase"], "attr": {"T": {"type": "DT_FLOAT"}}}, {"name": "batch_normalization_3/cond/FusedBatchNorm_1", "op": "FusedBatchNorm", "input": ["batch_normalization_3/cond/FusedBatchNorm/Switch", "batch_normalization_3/cond/ReadVariableOp/Switch", "batch_normalization_3/cond/ReadVariableOp_1/Switch", "batch_normalization_3/cond/FusedBatchNorm_1/ReadVariableOp/Switch", "batch_normalization_3/cond/FusedBatchNorm_1/ReadVariableOp_1/Switch"], "attr": {"is_training": {"b": false}, "epsilon": {"f": 0.0010000000474974513}, "T": {"type": "DT_FLOAT"}, "data_format": {"s": "TkhXQw=="}}}, {"name": "batch_normalization_3/cond/FusedBatchNorm", "op": "FusedBatchNorm", "input": ["batch_normalization_3/cond/FusedBatchNorm/Switch:1", "batch_normalization_3/cond/ReadVariableOp/Switch:1", "batch_normalization_3/cond/ReadVariableOp_1/Switch:1", "batch_normalization/cond/Const", "batch_normalization/cond/Const"], "attr": {"epsilon": {"f": 0.0010000000474974513}, "T": {"type": "DT_FLOAT"}, "data_format": {"s": "TkhXQw=="}, "is_training": {"b": true}}}, {"name": "batch_normalization_15/cond/FusedBatchNorm_1", "op": "FusedBatchNorm", "input": ["batch_normalization_15/cond/FusedBatchNorm/Switch", "batch_normalization_15/cond/ReadVariableOp/Switch", "batch_normalization_15/cond/ReadVariableOp_1/Switch", "batch_normalization_3/cond/FusedBatchNorm_1/ReadVariableOp/Switch", "batch_normalization_3/cond/FusedBatchNorm_1/ReadVariableOp_1/Switch"], "attr": {"T": {"type": "DT_FLOAT"}, "data_format": {"s": "TkhXQw=="}, "is_training": {"b": false}, "epsilon": {"f": 0.0010000000474974513}}}, {"name": "batch_normalization_15/cond/FusedBatchNorm", "op": "FusedBatchNorm", "input": ["batch_normalization_15/cond/FusedBatchNorm/Switch:1", "batch_normalization_15/cond/ReadVariableOp/Switch:1", "batch_normalization_15/cond/ReadVariableOp_1/Switch:1", "batch_normalization/cond/Const", "batch_normalization/cond/Const"], "attr": {"epsilon": {"f": 0.0010000000474974513}, "T": {"type": "DT_FLOAT"}, "data_format": {"s": "TkhXQw=="}, "is_training": {"b": true}}}, {"name": "batch_normalization_3/cond/Merge", "op": "Merge", "input": ["batch_normalization_3/cond/FusedBatchNorm_1", "batch_normalization_3/cond/FusedBatchNorm"], "attr": {"N": {"i": "2"}, "T": {"type": "DT_FLOAT"}}}, {"name": "batch_normalization_15/cond/Merge", "op": "Merge", "input": ["batch_normalization_15/cond/FusedBatchNorm_1", "batch_normalization_15/cond/FusedBatchNorm"], "attr": {"T": {"type": "DT_FLOAT"}, "N": {"i": "2"}}}, {"name": "leaky_re_lu_3/LeakyRelu", "op": "LeakyRelu", "input": ["batch_normalization_3/cond/Merge"], "attr": {"T": {"type": "DT_FLOAT"}, "alpha": {"f": 0.20000000298023224}}}, {"name": "leaky_re_lu_1_4/LeakyRelu", "op": "LeakyRelu", "input": ["batch_normalization_15/cond/Merge"], "attr": {"T": {"type": "DT_FLOAT"}, "alpha": {"f": 0.20000000298023224}}}, {"name": "conv2d_4/BiasAdd", "op": "_FusedConv2D", "input": ["leaky_re_lu_3/LeakyRelu", "conv2d_4/kernel", "conv2d_4/bias"], "device": "/device:CPU:0", "attr": {"explicit_paddings": {"list": {}}, "use_cudnn_on_gpu": {"b": true}, "num_args": {"i": "1"}, "epsilon": {"f": 0.0}, "padding": {"s": "U0FNRQ=="}, "fused_ops": {"list": {"s": ["Qmlhc0FkZA=="]}}, "dilations": {"list": {"i": ["1", "1", "1", "1"]}}, "T": {"type": "DT_FLOAT"}, "strides": {"list": {"i": ["1", "2", "2", "1"]}}, "data_format": {"s": "TkhXQw=="}}}, {"name": "conv2d_11/BiasAdd", "op": "_FusedConv2D", "input": ["leaky_re_lu_1_4/LeakyRelu", "conv2d_11/kernel", "conv2d_11/bias"], "device": "/device:CPU:0", "attr": {"fused_ops": {"list": {"s": ["Qmlhc0FkZA=="]}}, "dilations": {"list": {"i": ["1", "1", "1", "1"]}}, "T": {"type": "DT_FLOAT"}, "data_format": {"s": "TkhXQw=="}, "strides": {"list": {"i": ["1", "2", "2", "1"]}}, "use_cudnn_on_gpu": {"b": true}, "explicit_paddings": {"list": {}}, "num_args": {"i": "1"}, "epsilon": {"f": 0.0}, "padding": {"s": "U0FNRQ=="}}}, {"name": "batch_normalization_4/cond/FusedBatchNorm/Switch", "op": "Switch", "input": ["conv2d_4/BiasAdd", "keras_learning_phase"], "attr": {"T": {"type": "DT_FLOAT"}}}, {"name": "batch_normalization_16/cond/FusedBatchNorm/Switch", "op": "Switch", "input": ["conv2d_11/BiasAdd", "keras_learning_phase"], "attr": {"T": {"type": "DT_FLOAT"}}}, {"name": "batch_normalization_4/cond/FusedBatchNorm_1", "op": "FusedBatchNorm", "input": ["batch_normalization_4/cond/FusedBatchNorm/Switch", "batch_normalization_4/cond/ReadVariableOp/Switch", "batch_normalization_4/cond/ReadVariableOp_1/Switch", "batch_normalization_4/cond/FusedBatchNorm_1/ReadVariableOp/Switch", "batch_normalization_4/cond/FusedBatchNorm_1/ReadVariableOp_1/Switch"], "attr": {"is_training": {"b": false}, "epsilon": {"f": 0.0010000000474974513}, "T": {"type": "DT_FLOAT"}, "data_format": {"s": "TkhXQw=="}}}, {"name": "batch_normalization_4/cond/FusedBatchNorm", "op": "FusedBatchNorm", "input": ["batch_normalization_4/cond/FusedBatchNorm/Switch:1", "batch_normalization_4/cond/ReadVariableOp/Switch:1", "batch_normalization_4/cond/ReadVariableOp_1/Switch:1", "batch_normalization/cond/Const", "batch_normalization/cond/Const"], "attr": {"data_format": {"s": "TkhXQw=="}, "is_training": {"b": true}, "epsilon": {"f": 0.0010000000474974513}, "T": {"type": "DT_FLOAT"}}}, {"name": "batch_normalization_16/cond/FusedBatchNorm_1", "op": "FusedBatchNorm", "input": ["batch_normalization_16/cond/FusedBatchNorm/Switch", "batch_normalization_16/cond/ReadVariableOp/Switch", "batch_normalization_16/cond/ReadVariableOp_1/Switch", "batch_normalization_4/cond/FusedBatchNorm_1/ReadVariableOp/Switch", "batch_normalization_4/cond/FusedBatchNorm_1/ReadVariableOp_1/Switch"], "attr": {"epsilon": {"f": 0.0010000000474974513}, "T": {"type": "DT_FLOAT"}, "data_format": {"s": "TkhXQw=="}, "is_training": {"b": false}}}, {"name": "batch_normalization_16/cond/FusedBatchNorm", "op": "FusedBatchNorm", "input": ["batch_normalization_16/cond/FusedBatchNorm/Switch:1", "batch_normalization_16/cond/ReadVariableOp/Switch:1", "batch_normalization_16/cond/ReadVariableOp_1/Switch:1", "batch_normalization/cond/Const", "batch_normalization/cond/Const"], "attr": {"data_format": {"s": "TkhXQw=="}, "is_training": {"b": true}, "epsilon": {"f": 0.0010000000474974513}, "T": {"type": "DT_FLOAT"}}}, {"name": "batch_normalization_4/cond/Merge", "op": "Merge", "input": ["batch_normalization_4/cond/FusedBatchNorm_1", "batch_normalization_4/cond/FusedBatchNorm"], "attr": {"T": {"type": "DT_FLOAT"}, "N": {"i": "2"}}}, {"name": "batch_normalization_16/cond/Merge", "op": "Merge", "input": ["batch_normalization_16/cond/FusedBatchNorm_1", "batch_normalization_16/cond/FusedBatchNorm"], "attr": {"N": {"i": "2"}, "T": {"type": "DT_FLOAT"}}}, {"name": "leaky_re_lu_4/LeakyRelu", "op": "LeakyRelu", "input": ["batch_normalization_4/cond/Merge"], "attr": {"T": {"type": "DT_FLOAT"}, "alpha": {"f": 0.20000000298023224}}}, {"name": "leaky_re_lu_1_5/LeakyRelu", "op": "LeakyRelu", "input": ["batch_normalization_16/cond/Merge"], "attr": {"T": {"type": "DT_FLOAT"}, "alpha": {"f": 0.20000000298023224}}}, {"name": "conv2d_5/BiasAdd", "op": "_FusedConv2D", "input": ["leaky_re_lu_4/LeakyRelu", "conv2d_5/kernel", "conv2d_5/bias"], "device": "/device:CPU:0", "attr": {"fused_ops": {"list": {"s": ["Qmlhc0FkZA=="]}}, "dilations": {"list": {"i": ["1", "1", "1", "1"]}}, "T": {"type": "DT_FLOAT"}, "data_format": {"s": "TkhXQw=="}, "strides": {"list": {"i": ["1", "2", "2", "1"]}}, "explicit_paddings": {"list": {}}, "use_cudnn_on_gpu": {"b": true}, "num_args": {"i": "1"}, "epsilon": {"f": 0.0}, "padding": {"s": "U0FNRQ=="}}}, {"name": "conv2d_12/BiasAdd", "op": "_FusedConv2D", "input": ["leaky_re_lu_1_5/LeakyRelu", "conv2d_12/kernel", "conv2d_12/bias"], "device": "/device:CPU:0", "attr": {"epsilon": {"f": 0.0}, "padding": {"s": "U0FNRQ=="}, "fused_ops": {"list": {"s": ["Qmlhc0FkZA=="]}}, "dilations": {"list": {"i": ["1", "1", "1", "1"]}}, "T": {"type": "DT_FLOAT"}, "data_format": {"s": "TkhXQw=="}, "strides": {"list": {"i": ["1", "2", "2", "1"]}}, "explicit_paddings": {"list": {}}, "use_cudnn_on_gpu": {"b": true}, "num_args": {"i": "1"}}}, {"name": "conv2d_transpose/Shape", "op": "Shape", "input": ["conv2d_5/BiasAdd"], "attr": {"T": {"type": "DT_FLOAT"}, "out_type": {"type": "DT_INT32"}}}, {"name": "conv2d_transpose_6/Shape", "op": "Shape", "input": ["conv2d_12/BiasAdd"], "attr": {"T": {"type": "DT_FLOAT"}, "out_type": {"type": "DT_INT32"}}}, {"name": "conv2d_transpose/strided_slice", "op": "StridedSlice", "input": ["conv2d_transpose/Shape", "strided_slice/stack", "stft/frame/strided_slice_1/stack", "stft/frame/strided_slice_1/stack"], "attr": {"Index": {"type": "DT_INT32"}, "T": {"type": "DT_INT32"}, "shrink_axis_mask": {"i": "1"}, "begin_mask": {"i": "0"}, "ellipsis_mask": {"i": "0"}, "new_axis_mask": {"i": "0"}, "end_mask": {"i": "0"}}}, {"name": "conv2d_transpose/strided_slice_1", "op": "StridedSlice", "input": ["conv2d_transpose/Shape", "stft/frame/strided_slice_1/stack", "stft/frame/strided_slice_1/stack_1", "stft/frame/strided_slice_1/stack"], "attr": {"shrink_axis_mask": {"i": "1"}, "begin_mask": {"i": "0"}, "ellipsis_mask": {"i": "0"}, "new_axis_mask": {"i": "0"}, "end_mask": {"i": "0"}, "Index": {"type": "DT_INT32"}, "T": {"type": "DT_INT32"}}}, {"name": "conv2d_transpose/strided_slice_2", "op": "StridedSlice", "input": ["conv2d_transpose/Shape", "stft/frame/strided_slice_1/stack_1", "conv2d_transpose/strided_slice_2/stack_1", "stft/frame/strided_slice_1/stack"], "attr": {"end_mask": {"i": "0"}, "Index": {"type": "DT_INT32"}, "T": {"type": "DT_INT32"}, "shrink_axis_mask": {"i": "1"}, "begin_mask": {"i": "0"}, "ellipsis_mask": {"i": "0"}, "new_axis_mask": {"i": "0"}}}, {"name": "conv2d_transpose_6/strided_slice", "op": "StridedSlice", "input": ["conv2d_transpose_6/Shape", "strided_slice/stack", "stft/frame/strided_slice_1/stack", "stft/frame/strided_slice_1/stack"], "attr": {"T": {"type": "DT_INT32"}, "Index": {"type": "DT_INT32"}, "shrink_axis_mask": {"i": "1"}, "ellipsis_mask": {"i": "0"}, "begin_mask": {"i": "0"}, "new_axis_mask": {"i": "0"}, "end_mask": {"i": "0"}}}, {"name": "conv2d_transpose_6/strided_slice_1", "op": "StridedSlice", "input": ["conv2d_transpose_6/Shape", "stft/frame/strided_slice_1/stack", "stft/frame/strided_slice_1/stack_1", "stft/frame/strided_slice_1/stack"], "attr": {"shrink_axis_mask": {"i": "1"}, "ellipsis_mask": {"i": "0"}, "begin_mask": {"i": "0"}, "new_axis_mask": {"i": "0"}, "end_mask": {"i": "0"}, "Index": {"type": "DT_INT32"}, "T": {"type": "DT_INT32"}}}, {"name": "conv2d_transpose_6/strided_slice_2", "op": "StridedSlice", "input": ["conv2d_transpose_6/Shape", "stft/frame/strided_slice_1/stack_1", "conv2d_transpose/strided_slice_2/stack_1", "stft/frame/strided_slice_1/stack"], "attr": {"Index": {"type": "DT_INT32"}, "T": {"type": "DT_INT32"}, "shrink_axis_mask": {"i": "1"}, "ellipsis_mask": {"i": "0"}, "begin_mask": {"i": "0"}, "new_axis_mask": {"i": "0"}, "end_mask": {"i": "0"}}}, {"name": "conv2d_transpose/mul", "op": "Mul", "input": ["conv2d_transpose/strided_slice_1", "stft/frame/zeros/packed/1"], "attr": {"T": {"type": "DT_INT32"}}}, {"name": "conv2d_transpose/mul_1", "op": "Mul", "input": ["conv2d_transpose/strided_slice_2", "stft/frame/zeros/packed/1"], "attr": {"T": {"type": "DT_INT32"}}}, {"name": "conv2d_transpose_6/mul", "op": "Mul", "input": ["conv2d_transpose_6/strided_slice_1", "stft/frame/zeros/packed/1"], "attr": {"T": {"type": "DT_INT32"}}}, {"name": "conv2d_transpose_6/mul_1", "op": "Mul", "input": ["conv2d_transpose_6/strided_slice_2", "stft/frame/zeros/packed/1"], "attr": {"T": {"type": "DT_INT32"}}}, {"name": "conv2d_transpose/stack", "op": "Pack", "input": ["conv2d_transpose/strided_slice", "conv2d_transpose/mul", "conv2d_transpose/mul_1", "conv2d_transpose/stack/3"], "attr": {"T": {"type": "DT_INT32"}, "axis": {"i": "0"}, "N": {"i": "4"}}}, {"name": "conv2d_transpose_6/stack", "op": "Pack", "input": ["conv2d_transpose_6/strided_slice", "conv2d_transpose_6/mul", "conv2d_transpose_6/mul_1", "conv2d_transpose/stack/3"], "attr": {"T": {"type": "DT_INT32"}, "axis": {"i": "0"}, "N": {"i": "4"}}}, {"name": "conv2d_transpose/conv2d_transpose", "op": "Conv2DBackpropInput", "input": ["conv2d_transpose/stack", "conv2d_transpose/kernel", "conv2d_5/BiasAdd"], "attr": {"padding": {"s": "U0FNRQ=="}, "dilations": {"list": {"i": ["1", "1", "1", "1"]}}, "T": {"type": "DT_FLOAT"}, "data_format": {"s": "TkhXQw=="}, "strides": {"list": {"i": ["1", "2", "2", "1"]}}, "use_cudnn_on_gpu": {"b": true}, "explicit_paddings": {"list": {}}}}, {"name": "conv2d_transpose_6/conv2d_transpose", "op": "Conv2DBackpropInput", "input": ["conv2d_transpose_6/stack", "conv2d_transpose_6/kernel", "conv2d_12/BiasAdd"], "attr": {"padding": {"s": "U0FNRQ=="}, "dilations": {"list": {"i": ["1", "1", "1", "1"]}}, "T": {"type": "DT_FLOAT"}, "data_format": {"s": "TkhXQw=="}, "strides": {"list": {"i": ["1", "2", "2", "1"]}}, "explicit_paddings": {"list": {}}, "use_cudnn_on_gpu": {"b": true}}}, {"name": "conv2d_transpose/BiasAdd", "op": "BiasAdd", "input": ["conv2d_transpose/conv2d_transpose", "conv2d_transpose/bias"], "attr": {"data_format": {"s": "TkhXQw=="}, "T": {"type": "DT_FLOAT"}}}, {"name": "conv2d_transpose_6/BiasAdd", "op": "BiasAdd", "input": ["conv2d_transpose_6/conv2d_transpose", "conv2d_transpose_6/bias"], "attr": {"T": {"type": "DT_FLOAT"}, "data_format": {"s": "TkhXQw=="}}}, {"name": "re_lu/Relu", "op": "Relu", "input": ["conv2d_transpose/BiasAdd"], "attr": {"T": {"type": "DT_FLOAT"}}}, {"name": "re_lu_1_1/Relu", "op": "Relu", "input": ["conv2d_transpose_6/BiasAdd"], "attr": {"T": {"type": "DT_FLOAT"}}}, {"name": "batch_normalization_6/cond/FusedBatchNorm/Switch", "op": "Switch", "input": ["re_lu/Relu", "keras_learning_phase"], "attr": {"T": {"type": "DT_FLOAT"}}}, {"name": "batch_normalization_18/cond/FusedBatchNorm/Switch", "op": "Switch", "input": ["re_lu_1_1/Relu", "keras_learning_phase"], "attr": {"T": {"type": "DT_FLOAT"}}}, {"name": "batch_normalization_6/cond/FusedBatchNorm_1", "op": "FusedBatchNorm", "input": ["batch_normalization_6/cond/FusedBatchNorm/Switch", "batch_normalization_6/cond/ReadVariableOp/Switch", "batch_normalization_6/cond/ReadVariableOp_1/Switch", "batch_normalization_4/cond/FusedBatchNorm_1/ReadVariableOp/Switch", "batch_normalization_4/cond/FusedBatchNorm_1/ReadVariableOp_1/Switch"], "attr": {"data_format": {"s": "TkhXQw=="}, "is_training": {"b": false}, "epsilon": {"f": 0.0010000000474974513}, "T": {"type": "DT_FLOAT"}}}, {"name": "batch_normalization_6/cond/FusedBatchNorm", "op": "FusedBatchNorm", "input": ["batch_normalization_6/cond/FusedBatchNorm/Switch:1", "batch_normalization_6/cond/ReadVariableOp/Switch:1", "batch_normalization_6/cond/ReadVariableOp_1/Switch:1", "batch_normalization/cond/Const", "batch_normalization/cond/Const"], "attr": {"T": {"type": "DT_FLOAT"}, "data_format": {"s": "TkhXQw=="}, "is_training": {"b": true}, "epsilon": {"f": 0.0010000000474974513}}}, {"name": "batch_normalization_18/cond/FusedBatchNorm_1", "op": "FusedBatchNorm", "input": ["batch_normalization_18/cond/FusedBatchNorm/Switch", "batch_normalization_18/cond/ReadVariableOp/Switch", "batch_normalization_18/cond/ReadVariableOp_1/Switch", "batch_normalization_4/cond/FusedBatchNorm_1/ReadVariableOp/Switch", "batch_normalization_4/cond/FusedBatchNorm_1/ReadVariableOp_1/Switch"], "attr": {"is_training": {"b": false}, "epsilon": {"f": 0.0010000000474974513}, "T": {"type": "DT_FLOAT"}, "data_format": {"s": "TkhXQw=="}}}, {"name": "batch_normalization_18/cond/FusedBatchNorm", "op": "FusedBatchNorm", "input": ["batch_normalization_18/cond/FusedBatchNorm/Switch:1", "batch_normalization_18/cond/ReadVariableOp/Switch:1", "batch_normalization_18/cond/ReadVariableOp_1/Switch:1", "batch_normalization/cond/Const", "batch_normalization/cond/Const"], "attr": {"T": {"type": "DT_FLOAT"}, "data_format": {"s": "TkhXQw=="}, "is_training": {"b": true}, "epsilon": {"f": 0.0010000000474974513}}}, {"name": "batch_normalization_6/cond/Merge", "op": "Merge", "input": ["batch_normalization_6/cond/FusedBatchNorm_1", "batch_normalization_6/cond/FusedBatchNorm"], "attr": {"T": {"type": "DT_FLOAT"}, "N": {"i": "2"}}}, {"name": "batch_normalization_18/cond/Merge", "op": "Merge", "input": ["batch_normalization_18/cond/FusedBatchNorm_1", "batch_normalization_18/cond/FusedBatchNorm"], "attr": {"T": {"type": "DT_FLOAT"}, "N": {"i": "2"}}}, {"name": "dropout/cond/dropout/Shape/Switch", "op": "Switch", "input": ["batch_normalization_6/cond/Merge", "keras_learning_phase"], "attr": {"T": {"type": "DT_FLOAT"}}}, {"name": "dropout_3/cond/dropout/Shape/Switch", "op": "Switch", "input": ["batch_normalization_18/cond/Merge", "keras_learning_phase"], "attr": {"T": {"type": "DT_FLOAT"}}}, {"name": "dropout/cond/dropout/Shape", "op": "Shape", "input": ["dropout/cond/dropout/Shape/Switch:1"], "attr": {"T": {"type": "DT_FLOAT"}, "out_type": {"type": "DT_INT32"}}}, {"name": "dropout_3/cond/dropout/Shape", "op": "Shape", "input": ["dropout_3/cond/dropout/Shape/Switch:1"], "attr": {"T": {"type": "DT_FLOAT"}, "out_type": {"type": "DT_INT32"}}}, {"name": "dropout/cond/dropout/random_uniform/RandomUniform", "op": "RandomUniform", "input": ["dropout/cond/dropout/Shape"], "attr": {"T": {"type": "DT_INT32"}, "dtype": {"type": "DT_FLOAT"}, "seed2": {"i": "0"}, "seed": {"i": "0"}}}, {"name": "dropout_3/cond/dropout/random_uniform/RandomUniform", "op": "RandomUniform", "input": ["dropout_3/cond/dropout/Shape"], "attr": {"dtype": {"type": "DT_FLOAT"}, "seed2": {"i": "0"}, "seed": {"i": "0"}, "T": {"type": "DT_INT32"}}}, {"name": "dropout/cond/dropout/GreaterEqual", "op": "GreaterEqual", "input": ["dropout/cond/dropout/random_uniform/RandomUniform", "dropout/cond/dropout/rate"], "attr": {"T": {"type": "DT_FLOAT"}}}, {"name": "dropout_3/cond/dropout/GreaterEqual", "op": "GreaterEqual", "input": ["dropout_3/cond/dropout/random_uniform/RandomUniform", "dropout/cond/dropout/rate"], "attr": {"T": {"type": "DT_FLOAT"}}}, {"name": "dropout/cond/dropout/Cast", "op": "Cast", "input": ["dropout/cond/dropout/GreaterEqual"], "attr": {"SrcT": {"type": "DT_BOOL"}, "Truncate": {"b": false}, "DstT": {"type": "DT_FLOAT"}}}, {"name": "dropout_3/cond/dropout/Cast", "op": "Cast", "input": ["dropout_3/cond/dropout/GreaterEqual"], "attr": {"SrcT": {"type": "DT_BOOL"}, "Truncate": {"b": false}, "DstT": {"type": "DT_FLOAT"}}}, {"name": "dropout/cond/dropout/mul", "op": "Mul", "input": ["dropout/cond/dropout/Cast", "dropout/cond/dropout/truediv"], "attr": {"_grappler_ArithmeticOptimizer_MinimizeBroadcasts": {"b": true}, "T": {"type": "DT_FLOAT"}}}, {"name": "dropout_3/cond/dropout/mul", "op": "Mul", "input": ["dropout/cond/dropout/truediv", "dropout_3/cond/dropout/Cast"], "attr": {"_grappler_ArithmeticOptimizer_MinimizeBroadcasts": {"b": true}, "T": {"type": "DT_FLOAT"}}}, {"name": "dropout/cond/dropout/mul_1", "op": "Mul", "input": ["dropout/cond/dropout/Shape/Switch:1", "dropout/cond/dropout/mul"], "attr": {"T": {"type": "DT_FLOAT"}, "_grappler_ArithmeticOptimizer_MinimizeBroadcasts": {"b": true}}}, {"name": "dropout_3/cond/dropout/mul_1", "op": "Mul", "input": ["dropout_3/cond/dropout/Shape/Switch:1", "dropout_3/cond/dropout/mul"], "attr": {"_grappler_ArithmeticOptimizer_MinimizeBroadcasts": {"b": true}, "T": {"type": "DT_FLOAT"}}}, {"name": "dropout/cond/Merge", "op": "Merge", "input": ["dropout/cond/dropout/Shape/Switch", "dropout/cond/dropout/mul_1"], "attr": {"T": {"type": "DT_FLOAT"}, "N": {"i": "2"}}}, {"name": "dropout_3/cond/Merge", "op": "Merge", "input": ["dropout_3/cond/dropout/Shape/Switch", "dropout_3/cond/dropout/mul_1"], "attr": {"T": {"type": "DT_FLOAT"}, "N": {"i": "2"}}}, {"name": "concatenate/concat", "op": "ConcatV2", "input": ["conv2d_4/BiasAdd", "dropout/cond/Merge", "concatenate/concat/axis"], "attr": {"T": {"type": "DT_FLOAT"}, "N": {"i": "2"}, "Tidx": {"type": "DT_INT32"}}}, {"name": "concatenate_5/concat", "op": "ConcatV2", "input": ["conv2d_11/BiasAdd", "dropout_3/cond/Merge", "concatenate/concat/axis"], "attr": {"T": {"type": "DT_FLOAT"}, "N": {"i": "2"}, "Tidx": {"type": "DT_INT32"}}}, {"name": "conv2d_transpose_1/Shape", "op": "Shape", "input": ["concatenate/concat"], "attr": {"T": {"type": "DT_FLOAT"}, "out_type": {"type": "DT_INT32"}}}, {"name": "conv2d_transpose_7/Shape", "op": "Shape", "input": ["concatenate_5/concat"], "attr": {"out_type": {"type": "DT_INT32"}, "T": {"type": "DT_FLOAT"}}}, {"name": "conv2d_transpose_1/strided_slice", "op": "StridedSlice", "input": ["conv2d_transpose_1/Shape", "strided_slice/stack", "stft/frame/strided_slice_1/stack", "stft/frame/strided_slice_1/stack"], "attr": {"shrink_axis_mask": {"i": "1"}, "ellipsis_mask": {"i": "0"}, "begin_mask": {"i": "0"}, "new_axis_mask": {"i": "0"}, "end_mask": {"i": "0"}, "Index": {"type": "DT_INT32"}, "T": {"type": "DT_INT32"}}}, {"name": "conv2d_transpose_1/strided_slice_1", "op": "StridedSlice", "input": ["conv2d_transpose_1/Shape", "stft/frame/strided_slice_1/stack", "stft/frame/strided_slice_1/stack_1", "stft/frame/strided_slice_1/stack"], "attr": {"T": {"type": "DT_INT32"}, "Index": {"type": "DT_INT32"}, "shrink_axis_mask": {"i": "1"}, "begin_mask": {"i": "0"}, "ellipsis_mask": {"i": "0"}, "new_axis_mask": {"i": "0"}, "end_mask": {"i": "0"}}}, {"name": "conv2d_transpose_1/strided_slice_2", "op": "StridedSlice", "input": ["conv2d_transpose_1/Shape", "stft/frame/strided_slice_1/stack_1", "conv2d_transpose/strided_slice_2/stack_1", "stft/frame/strided_slice_1/stack"], "attr": {"Index": {"type": "DT_INT32"}, "T": {"type": "DT_INT32"}, "shrink_axis_mask": {"i": "1"}, "begin_mask": {"i": "0"}, "ellipsis_mask": {"i": "0"}, "new_axis_mask": {"i": "0"}, "end_mask": {"i": "0"}}}, {"name": "conv2d_transpose_7/strided_slice", "op": "StridedSlice", "input": ["conv2d_transpose_7/Shape", "strided_slice/stack", "stft/frame/strided_slice_1/stack", "stft/frame/strided_slice_1/stack"], "attr": {"Index": {"type": "DT_INT32"}, "T": {"type": "DT_INT32"}, "shrink_axis_mask": {"i": "1"}, "ellipsis_mask": {"i": "0"}, "begin_mask": {"i": "0"}, "new_axis_mask": {"i": "0"}, "end_mask": {"i": "0"}}}, {"name": "conv2d_transpose_7/strided_slice_1", "op": "StridedSlice", "input": ["conv2d_transpose_7/Shape", "stft/frame/strided_slice_1/stack", "stft/frame/strided_slice_1/stack_1", "stft/frame/strided_slice_1/stack"], "attr": {"T": {"type": "DT_INT32"}, "Index": {"type": "DT_INT32"}, "shrink_axis_mask": {"i": "1"}, "ellipsis_mask": {"i": "0"}, "begin_mask": {"i": "0"}, "new_axis_mask": {"i": "0"}, "end_mask": {"i": "0"}}}, {"name": "conv2d_transpose_7/strided_slice_2", "op": "StridedSlice", "input": ["conv2d_transpose_7/Shape", "stft/frame/strided_slice_1/stack_1", "conv2d_transpose/strided_slice_2/stack_1", "stft/frame/strided_slice_1/stack"], "attr": {"shrink_axis_mask": {"i": "1"}, "begin_mask": {"i": "0"}, "ellipsis_mask": {"i": "0"}, "new_axis_mask": {"i": "0"}, "end_mask": {"i": "0"}, "T": {"type": "DT_INT32"}, "Index": {"type": "DT_INT32"}}}, {"name": "conv2d_transpose_1/mul", "op": "Mul", "input": ["conv2d_transpose_1/strided_slice_1", "stft/frame/zeros/packed/1"], "attr": {"T": {"type": "DT_INT32"}}}, {"name": "conv2d_transpose_1/mul_1", "op": "Mul", "input": ["conv2d_transpose_1/strided_slice_2", "stft/frame/zeros/packed/1"], "attr": {"T": {"type": "DT_INT32"}}}, {"name": "conv2d_transpose_7/mul", "op": "Mul", "input": ["conv2d_transpose_7/strided_slice_1", "stft/frame/zeros/packed/1"], "attr": {"T": {"type": "DT_INT32"}}}, {"name": "conv2d_transpose_7/mul_1", "op": "Mul", "input": ["conv2d_transpose_7/strided_slice_2", "stft/frame/zeros/packed/1"], "attr": {"T": {"type": "DT_INT32"}}}, {"name": "conv2d_transpose_1/stack", "op": "Pack", "input": ["conv2d_transpose_1/strided_slice", "conv2d_transpose_1/mul", "conv2d_transpose_1/mul_1", "conv2d_transpose_1/stack/3"], "attr": {"T": {"type": "DT_INT32"}, "axis": {"i": "0"}, "N": {"i": "4"}}}, {"name": "conv2d_transpose_7/stack", "op": "Pack", "input": ["conv2d_transpose_7/strided_slice", "conv2d_transpose_7/mul", "conv2d_transpose_7/mul_1", "conv2d_transpose_1/stack/3"], "attr": {"T": {"type": "DT_INT32"}, "axis": {"i": "0"}, "N": {"i": "4"}}}, {"name": "conv2d_transpose_1/conv2d_transpose", "op": "Conv2DBackpropInput", "input": ["conv2d_transpose_1/stack", "conv2d_transpose_1/kernel", "concatenate/concat"], "attr": {"dilations": {"list": {"i": ["1", "1", "1", "1"]}}, "T": {"type": "DT_FLOAT"}, "data_format": {"s": "TkhXQw=="}, "strides": {"list": {"i": ["1", "2", "2", "1"]}}, "explicit_paddings": {"list": {}}, "use_cudnn_on_gpu": {"b": true}, "padding": {"s": "U0FNRQ=="}}}, {"name": "conv2d_transpose_7/conv2d_transpose", "op": "Conv2DBackpropInput", "input": ["conv2d_transpose_7/stack", "conv2d_transpose_7/kernel", "concatenate_5/concat"], "attr": {"padding": {"s": "U0FNRQ=="}, "dilations": {"list": {"i": ["1", "1", "1", "1"]}}, "T": {"type": "DT_FLOAT"}, "data_format": {"s": "TkhXQw=="}, "strides": {"list": {"i": ["1", "2", "2", "1"]}}, "use_cudnn_on_gpu": {"b": true}, "explicit_paddings": {"list": {}}}}, {"name": "conv2d_transpose_1/BiasAdd", "op": "BiasAdd", "input": ["conv2d_transpose_1/conv2d_transpose", "conv2d_transpose_1/bias"], "attr": {"T": {"type": "DT_FLOAT"}, "data_format": {"s": "TkhXQw=="}}}, {"name": "conv2d_transpose_7/BiasAdd", "op": "BiasAdd", "input": ["conv2d_transpose_7/conv2d_transpose", "conv2d_transpose_7/bias"], "attr": {"data_format": {"s": "TkhXQw=="}, "T": {"type": "DT_FLOAT"}}}, {"name": "re_lu_1/Relu", "op": "Relu", "input": ["conv2d_transpose_1/BiasAdd"], "attr": {"T": {"type": "DT_FLOAT"}}}, {"name": "re_lu_1_2/Relu", "op": "Relu", "input": ["conv2d_transpose_7/BiasAdd"], "attr": {"T": {"type": "DT_FLOAT"}}}, {"name": "batch_normalization_7/cond/FusedBatchNorm/Switch", "op": "Switch", "input": ["re_lu_1/Relu", "keras_learning_phase"], "attr": {"T": {"type": "DT_FLOAT"}}}, {"name": "batch_normalization_19/cond/FusedBatchNorm/Switch", "op": "Switch", "input": ["re_lu_1_2/Relu", "keras_learning_phase"], "attr": {"T": {"type": "DT_FLOAT"}}}, {"name": "batch_normalization_7/cond/FusedBatchNorm_1", "op": "FusedBatchNorm", "input": ["batch_normalization_7/cond/FusedBatchNorm/Switch", "batch_normalization_7/cond/ReadVariableOp/Switch", "batch_normalization_7/cond/ReadVariableOp_1/Switch", "batch_normalization_3/cond/FusedBatchNorm_1/ReadVariableOp/Switch", "batch_normalization_3/cond/FusedBatchNorm_1/ReadVariableOp_1/Switch"], "attr": {"data_format": {"s": "TkhXQw=="}, "is_training": {"b": false}, "epsilon": {"f": 0.0010000000474974513}, "T": {"type": "DT_FLOAT"}}}, {"name": "batch_normalization_7/cond/FusedBatchNorm", "op": "FusedBatchNorm", "input": ["batch_normalization_7/cond/FusedBatchNorm/Switch:1", "batch_normalization_7/cond/ReadVariableOp/Switch:1", "batch_normalization_7/cond/ReadVariableOp_1/Switch:1", "batch_normalization/cond/Const", "batch_normalization/cond/Const"], "attr": {"is_training": {"b": true}, "epsilon": {"f": 0.0010000000474974513}, "T": {"type": "DT_FLOAT"}, "data_format": {"s": "TkhXQw=="}}}, {"name": "batch_normalization_19/cond/FusedBatchNorm_1", "op": "FusedBatchNorm", "input": ["batch_normalization_19/cond/FusedBatchNorm/Switch", "batch_normalization_19/cond/ReadVariableOp/Switch", "batch_normalization_19/cond/ReadVariableOp_1/Switch", "batch_normalization_3/cond/FusedBatchNorm_1/ReadVariableOp/Switch", "batch_normalization_3/cond/FusedBatchNorm_1/ReadVariableOp_1/Switch"], "attr": {"data_format": {"s": "TkhXQw=="}, "is_training": {"b": false}, "epsilon": {"f": 0.0010000000474974513}, "T": {"type": "DT_FLOAT"}}}, {"name": "batch_normalization_19/cond/FusedBatchNorm", "op": "FusedBatchNorm", "input": ["batch_normalization_19/cond/FusedBatchNorm/Switch:1", "batch_normalization_19/cond/ReadVariableOp/Switch:1", "batch_normalization_19/cond/ReadVariableOp_1/Switch:1", "batch_normalization/cond/Const", "batch_normalization/cond/Const"], "attr": {"epsilon": {"f": 0.0010000000474974513}, "T": {"type": "DT_FLOAT"}, "data_format": {"s": "TkhXQw=="}, "is_training": {"b": true}}}, {"name": "batch_normalization_7/cond/Merge", "op": "Merge", "input": ["batch_normalization_7/cond/FusedBatchNorm_1", "batch_normalization_7/cond/FusedBatchNorm"], "attr": {"N": {"i": "2"}, "T": {"type": "DT_FLOAT"}}}, {"name": "batch_normalization_19/cond/Merge", "op": "Merge", "input": ["batch_normalization_19/cond/FusedBatchNorm_1", "batch_normalization_19/cond/FusedBatchNorm"], "attr": {"T": {"type": "DT_FLOAT"}, "N": {"i": "2"}}}, {"name": "dropout_1/cond/dropout/Shape/Switch", "op": "Switch", "input": ["batch_normalization_7/cond/Merge", "keras_learning_phase"], "attr": {"T": {"type": "DT_FLOAT"}}}, {"name": "dropout_4/cond/dropout/Shape/Switch", "op": "Switch", "input": ["batch_normalization_19/cond/Merge", "keras_learning_phase"], "attr": {"T": {"type": "DT_FLOAT"}}}, {"name": "dropout_1/cond/dropout/Shape", "op": "Shape", "input": ["dropout_1/cond/dropout/Shape/Switch:1"], "attr": {"T": {"type": "DT_FLOAT"}, "out_type": {"type": "DT_INT32"}}}, {"name": "dropout_4/cond/dropout/Shape", "op": "Shape", "input": ["dropout_4/cond/dropout/Shape/Switch:1"], "attr": {"T": {"type": "DT_FLOAT"}, "out_type": {"type": "DT_INT32"}}}, {"name": "dropout_1/cond/dropout/random_uniform/RandomUniform", "op": "RandomUniform", "input": ["dropout_1/cond/dropout/Shape"], "attr": {"seed": {"i": "0"}, "T": {"type": "DT_INT32"}, "dtype": {"type": "DT_FLOAT"}, "seed2": {"i": "0"}}}, {"name": "dropout_4/cond/dropout/random_uniform/RandomUniform", "op": "RandomUniform", "input": ["dropout_4/cond/dropout/Shape"], "attr": {"seed": {"i": "0"}, "T": {"type": "DT_INT32"}, "dtype": {"type": "DT_FLOAT"}, "seed2": {"i": "0"}}}, {"name": "dropout_1/cond/dropout/GreaterEqual", "op": "GreaterEqual", "input": ["dropout_1/cond/dropout/random_uniform/RandomUniform", "dropout/cond/dropout/rate"], "attr": {"T": {"type": "DT_FLOAT"}}}, {"name": "dropout_4/cond/dropout/GreaterEqual", "op": "GreaterEqual", "input": ["dropout_4/cond/dropout/random_uniform/RandomUniform", "dropout/cond/dropout/rate"], "attr": {"T": {"type": "DT_FLOAT"}}}, {"name": "dropout_1/cond/dropout/Cast", "op": "Cast", "input": ["dropout_1/cond/dropout/GreaterEqual"], "attr": {"SrcT": {"type": "DT_BOOL"}, "Truncate": {"b": false}, "DstT": {"type": "DT_FLOAT"}}}, {"name": "dropout_4/cond/dropout/Cast", "op": "Cast", "input": ["dropout_4/cond/dropout/GreaterEqual"], "attr": {"SrcT": {"type": "DT_BOOL"}, "Truncate": {"b": false}, "DstT": {"type": "DT_FLOAT"}}}, {"name": "dropout_1/cond/dropout/mul", "op": "Mul", "input": ["dropout/cond/dropout/truediv", "dropout_1/cond/dropout/Cast"], "attr": {"_grappler_ArithmeticOptimizer_MinimizeBroadcasts": {"b": true}, "T": {"type": "DT_FLOAT"}}}, {"name": "dropout_4/cond/dropout/mul", "op": "Mul", "input": ["dropout/cond/dropout/truediv", "dropout_4/cond/dropout/Cast"], "attr": {"_grappler_ArithmeticOptimizer_MinimizeBroadcasts": {"b": true}, "T": {"type": "DT_FLOAT"}}}, {"name": "dropout_1/cond/dropout/mul_1", "op": "Mul", "input": ["dropout_1/cond/dropout/Shape/Switch:1", "dropout_1/cond/dropout/mul"], "attr": {"_grappler_ArithmeticOptimizer_MinimizeBroadcasts": {"b": true}, "T": {"type": "DT_FLOAT"}}}, {"name": "dropout_4/cond/dropout/mul_1", "op": "Mul", "input": ["dropout_4/cond/dropout/Shape/Switch:1", "dropout_4/cond/dropout/mul"], "attr": {"_grappler_ArithmeticOptimizer_MinimizeBroadcasts": {"b": true}, "T": {"type": "DT_FLOAT"}}}, {"name": "dropout_1/cond/Merge", "op": "Merge", "input": ["dropout_1/cond/dropout/Shape/Switch", "dropout_1/cond/dropout/mul_1"], "attr": {"T": {"type": "DT_FLOAT"}, "N": {"i": "2"}}}, {"name": "dropout_4/cond/Merge", "op": "Merge", "input": ["dropout_4/cond/dropout/Shape/Switch", "dropout_4/cond/dropout/mul_1"], "attr": {"T": {"type": "DT_FLOAT"}, "N": {"i": "2"}}}, {"name": "concatenate_1/concat", "op": "ConcatV2", "input": ["conv2d_3/BiasAdd", "dropout_1/cond/Merge", "concatenate/concat/axis"], "attr": {"Tidx": {"type": "DT_INT32"}, "T": {"type": "DT_FLOAT"}, "N": {"i": "2"}}}, {"name": "concatenate_6/concat", "op": "ConcatV2", "input": ["conv2d_10/BiasAdd", "dropout_4/cond/Merge", "concatenate/concat/axis"], "attr": {"N": {"i": "2"}, "Tidx": {"type": "DT_INT32"}, "T": {"type": "DT_FLOAT"}}}, {"name": "conv2d_transpose_2/Shape", "op": "Shape", "input": ["concatenate_1/concat"], "attr": {"T": {"type": "DT_FLOAT"}, "out_type": {"type": "DT_INT32"}}}, {"name": "conv2d_transpose_8/Shape", "op": "Shape", "input": ["concatenate_6/concat"], "attr": {"T": {"type": "DT_FLOAT"}, "out_type": {"type": "DT_INT32"}}}, {"name": "conv2d_transpose_2/strided_slice", "op": "StridedSlice", "input": ["conv2d_transpose_2/Shape", "strided_slice/stack", "stft/frame/strided_slice_1/stack", "stft/frame/strided_slice_1/stack"], "attr": {"end_mask": {"i": "0"}, "T": {"type": "DT_INT32"}, "Index": {"type": "DT_INT32"}, "shrink_axis_mask": {"i": "1"}, "ellipsis_mask": {"i": "0"}, "begin_mask": {"i": "0"}, "new_axis_mask": {"i": "0"}}}, {"name": "conv2d_transpose_2/strided_slice_1", "op": "StridedSlice", "input": ["conv2d_transpose_2/Shape", "stft/frame/strided_slice_1/stack", "stft/frame/strided_slice_1/stack_1", "stft/frame/strided_slice_1/stack"], "attr": {"end_mask": {"i": "0"}, "Index": {"type": "DT_INT32"}, "T": {"type": "DT_INT32"}, "shrink_axis_mask": {"i": "1"}, "begin_mask": {"i": "0"}, "ellipsis_mask": {"i": "0"}, "new_axis_mask": {"i": "0"}}}, {"name": "conv2d_transpose_2/strided_slice_2", "op": "StridedSlice", "input": ["conv2d_transpose_2/Shape", "stft/frame/strided_slice_1/stack_1", "conv2d_transpose/strided_slice_2/stack_1", "stft/frame/strided_slice_1/stack"], "attr": {"ellipsis_mask": {"i": "0"}, "begin_mask": {"i": "0"}, "new_axis_mask": {"i": "0"}, "end_mask": {"i": "0"}, "Index": {"type": "DT_INT32"}, "T": {"type": "DT_INT32"}, "shrink_axis_mask": {"i": "1"}}}, {"name": "conv2d_transpose_8/strided_slice", "op": "StridedSlice", "input": ["conv2d_transpose_8/Shape", "strided_slice/stack", "stft/frame/strided_slice_1/stack", "stft/frame/strided_slice_1/stack"], "attr": {"shrink_axis_mask": {"i": "1"}, "begin_mask": {"i": "0"}, "ellipsis_mask": {"i": "0"}, "new_axis_mask": {"i": "0"}, "end_mask": {"i": "0"}, "T": {"type": "DT_INT32"}, "Index": {"type": "DT_INT32"}}}, {"name": "conv2d_transpose_8/strided_slice_1", "op": "StridedSlice", "input": ["conv2d_transpose_8/Shape", "stft/frame/strided_slice_1/stack", "stft/frame/strided_slice_1/stack_1", "stft/frame/strided_slice_1/stack"], "attr": {"T": {"type": "DT_INT32"}, "Index": {"type": "DT_INT32"}, "shrink_axis_mask": {"i": "1"}, "ellipsis_mask": {"i": "0"}, "begin_mask": {"i": "0"}, "new_axis_mask": {"i": "0"}, "end_mask": {"i": "0"}}}, {"name": "conv2d_transpose_8/strided_slice_2", "op": "StridedSlice", "input": ["conv2d_transpose_8/Shape", "stft/frame/strided_slice_1/stack_1", "conv2d_transpose/strided_slice_2/stack_1", "stft/frame/strided_slice_1/stack"], "attr": {"shrink_axis_mask": {"i": "1"}, "ellipsis_mask": {"i": "0"}, "begin_mask": {"i": "0"}, "new_axis_mask": {"i": "0"}, "end_mask": {"i": "0"}, "T": {"type": "DT_INT32"}, "Index": {"type": "DT_INT32"}}}, {"name": "conv2d_transpose_2/mul", "op": "Mul", "input": ["conv2d_transpose_2/strided_slice_1", "stft/frame/zeros/packed/1"], "attr": {"T": {"type": "DT_INT32"}}}, {"name": "conv2d_transpose_2/mul_1", "op": "Mul", "input": ["conv2d_transpose_2/strided_slice_2", "stft/frame/zeros/packed/1"], "attr": {"T": {"type": "DT_INT32"}}}, {"name": "conv2d_transpose_8/mul", "op": "Mul", "input": ["conv2d_transpose_8/strided_slice_1", "stft/frame/zeros/packed/1"], "attr": {"T": {"type": "DT_INT32"}}}, {"name": "conv2d_transpose_8/mul_1", "op": "Mul", "input": ["conv2d_transpose_8/strided_slice_2", "stft/frame/zeros/packed/1"], "attr": {"T": {"type": "DT_INT32"}}}, {"name": "conv2d_transpose_2/stack", "op": "Pack", "input": ["conv2d_transpose_2/strided_slice", "conv2d_transpose_2/mul", "conv2d_transpose_2/mul_1", "conv2d_transpose_2/stack/3"], "attr": {"T": {"type": "DT_INT32"}, "axis": {"i": "0"}, "N": {"i": "4"}}}, {"name": "conv2d_transpose_8/stack", "op": "Pack", "input": ["conv2d_transpose_8/strided_slice", "conv2d_transpose_8/mul", "conv2d_transpose_8/mul_1", "conv2d_transpose_2/stack/3"], "attr": {"T": {"type": "DT_INT32"}, "axis": {"i": "0"}, "N": {"i": "4"}}}, {"name": "conv2d_transpose_2/conv2d_transpose", "op": "Conv2DBackpropInput", "input": ["conv2d_transpose_2/stack", "conv2d_transpose_2/kernel", "concatenate_1/concat"], "attr": {"padding": {"s": "U0FNRQ=="}, "dilations": {"list": {"i": ["1", "1", "1", "1"]}}, "T": {"type": "DT_FLOAT"}, "strides": {"list": {"i": ["1", "2", "2", "1"]}}, "data_format": {"s": "TkhXQw=="}, "explicit_paddings": {"list": {}}, "use_cudnn_on_gpu": {"b": true}}}, {"name": "conv2d_transpose_8/conv2d_transpose", "op": "Conv2DBackpropInput", "input": ["conv2d_transpose_8/stack", "conv2d_transpose_8/kernel", "concatenate_6/concat"], "attr": {"data_format": {"s": "TkhXQw=="}, "strides": {"list": {"i": ["1", "2", "2", "1"]}}, "use_cudnn_on_gpu": {"b": true}, "explicit_paddings": {"list": {}}, "padding": {"s": "U0FNRQ=="}, "dilations": {"list": {"i": ["1", "1", "1", "1"]}}, "T": {"type": "DT_FLOAT"}}}, {"name": "conv2d_transpose_2/BiasAdd", "op": "BiasAdd", "input": ["conv2d_transpose_2/conv2d_transpose", "conv2d_transpose_2/bias"], "attr": {"T": {"type": "DT_FLOAT"}, "data_format": {"s": "TkhXQw=="}}}, {"name": "conv2d_transpose_8/BiasAdd", "op": "BiasAdd", "input": ["conv2d_transpose_8/conv2d_transpose", "conv2d_transpose_8/bias"], "attr": {"data_format": {"s": "TkhXQw=="}, "T": {"type": "DT_FLOAT"}}}, {"name": "re_lu_2/Relu", "op": "Relu", "input": ["conv2d_transpose_2/BiasAdd"], "attr": {"T": {"type": "DT_FLOAT"}}}, {"name": "re_lu_1_3/Relu", "op": "Relu", "input": ["conv2d_transpose_8/BiasAdd"], "attr": {"T": {"type": "DT_FLOAT"}}}, {"name": "batch_normalization_8/cond/FusedBatchNorm/Switch", "op": "Switch", "input": ["re_lu_2/Relu", "keras_learning_phase"], "attr": {"T": {"type": "DT_FLOAT"}}}, {"name": "batch_normalization_20/cond/FusedBatchNorm/Switch", "op": "Switch", "input": ["re_lu_1_3/Relu", "keras_learning_phase"], "attr": {"T": {"type": "DT_FLOAT"}}}, {"name": "batch_normalization_8/cond/FusedBatchNorm_1", "op": "FusedBatchNorm", "input": ["batch_normalization_8/cond/FusedBatchNorm/Switch", "batch_normalization_8/cond/ReadVariableOp/Switch", "batch_normalization_8/cond/ReadVariableOp_1/Switch", "batch_normalization_2/cond/FusedBatchNorm_1/ReadVariableOp/Switch", "batch_normalization_2/cond/FusedBatchNorm_1/ReadVariableOp_1/Switch"], "attr": {"data_format": {"s": "TkhXQw=="}, "is_training": {"b": false}, "epsilon": {"f": 0.0010000000474974513}, "T": {"type": "DT_FLOAT"}}}, {"name": "batch_normalization_8/cond/FusedBatchNorm", "op": "FusedBatchNorm", "input": ["batch_normalization_8/cond/FusedBatchNorm/Switch:1", "batch_normalization_8/cond/ReadVariableOp/Switch:1", "batch_normalization_8/cond/ReadVariableOp_1/Switch:1", "batch_normalization/cond/Const", "batch_normalization/cond/Const"], "attr": {"data_format": {"s": "TkhXQw=="}, "is_training": {"b": true}, "epsilon": {"f": 0.0010000000474974513}, "T": {"type": "DT_FLOAT"}}}, {"name": "batch_normalization_20/cond/FusedBatchNorm_1", "op": "FusedBatchNorm", "input": ["batch_normalization_20/cond/FusedBatchNorm/Switch", "batch_normalization_20/cond/ReadVariableOp/Switch", "batch_normalization_20/cond/ReadVariableOp_1/Switch", "batch_normalization_2/cond/FusedBatchNorm_1/ReadVariableOp/Switch", "batch_normalization_2/cond/FusedBatchNorm_1/ReadVariableOp_1/Switch"], "attr": {"T": {"type": "DT_FLOAT"}, "data_format": {"s": "TkhXQw=="}, "is_training": {"b": false}, "epsilon": {"f": 0.0010000000474974513}}}, {"name": "batch_normalization_20/cond/FusedBatchNorm", "op": "FusedBatchNorm", "input": ["batch_normalization_20/cond/FusedBatchNorm/Switch:1", "batch_normalization_20/cond/ReadVariableOp/Switch:1", "batch_normalization_20/cond/ReadVariableOp_1/Switch:1", "batch_normalization/cond/Const", "batch_normalization/cond/Const"], "attr": {"T": {"type": "DT_FLOAT"}, "data_format": {"s": "TkhXQw=="}, "is_training": {"b": true}, "epsilon": {"f": 0.0010000000474974513}}}, {"name": "batch_normalization_8/cond/Merge", "op": "Merge", "input": ["batch_normalization_8/cond/FusedBatchNorm_1", "batch_normalization_8/cond/FusedBatchNorm"], "attr": {"N": {"i": "2"}, "T": {"type": "DT_FLOAT"}}}, {"name": "batch_normalization_20/cond/Merge", "op": "Merge", "input": ["batch_normalization_20/cond/FusedBatchNorm_1", "batch_normalization_20/cond/FusedBatchNorm"], "attr": {"T": {"type": "DT_FLOAT"}, "N": {"i": "2"}}}, {"name": "dropout_2/cond/dropout/Shape/Switch", "op": "Switch", "input": ["batch_normalization_8/cond/Merge", "keras_learning_phase"], "attr": {"T": {"type": "DT_FLOAT"}}}, {"name": "dropout_5/cond/dropout/Shape/Switch", "op": "Switch", "input": ["batch_normalization_20/cond/Merge", "keras_learning_phase"], "attr": {"T": {"type": "DT_FLOAT"}}}, {"name": "dropout_2/cond/dropout/Shape", "op": "Shape", "input": ["dropout_2/cond/dropout/Shape/Switch:1"], "attr": {"T": {"type": "DT_FLOAT"}, "out_type": {"type": "DT_INT32"}}}, {"name": "dropout_5/cond/dropout/Shape", "op": "Shape", "input": ["dropout_5/cond/dropout/Shape/Switch:1"], "attr": {"T": {"type": "DT_FLOAT"}, "out_type": {"type": "DT_INT32"}}}, {"name": "dropout_2/cond/dropout/random_uniform/RandomUniform", "op": "RandomUniform", "input": ["dropout_2/cond/dropout/Shape"], "attr": {"T": {"type": "DT_INT32"}, "dtype": {"type": "DT_FLOAT"}, "seed2": {"i": "0"}, "seed": {"i": "0"}}}, {"name": "dropout_5/cond/dropout/random_uniform/RandomUniform", "op": "RandomUniform", "input": ["dropout_5/cond/dropout/Shape"], "attr": {"seed": {"i": "0"}, "T": {"type": "DT_INT32"}, "dtype": {"type": "DT_FLOAT"}, "seed2": {"i": "0"}}}, {"name": "dropout_2/cond/dropout/GreaterEqual", "op": "GreaterEqual", "input": ["dropout_2/cond/dropout/random_uniform/RandomUniform", "dropout/cond/dropout/rate"], "attr": {"T": {"type": "DT_FLOAT"}}}, {"name": "dropout_5/cond/dropout/GreaterEqual", "op": "GreaterEqual", "input": ["dropout_5/cond/dropout/random_uniform/RandomUniform", "dropout/cond/dropout/rate"], "attr": {"T": {"type": "DT_FLOAT"}}}, {"name": "dropout_2/cond/dropout/Cast", "op": "Cast", "input": ["dropout_2/cond/dropout/GreaterEqual"], "attr": {"DstT": {"type": "DT_FLOAT"}, "SrcT": {"type": "DT_BOOL"}, "Truncate": {"b": false}}}, {"name": "dropout_5/cond/dropout/Cast", "op": "Cast", "input": ["dropout_5/cond/dropout/GreaterEqual"], "attr": {"DstT": {"type": "DT_FLOAT"}, "SrcT": {"type": "DT_BOOL"}, "Truncate": {"b": false}}}, {"name": "dropout_2/cond/dropout/mul", "op": "Mul", "input": ["dropout/cond/dropout/truediv", "dropout_2/cond/dropout/Cast"], "attr": {"_grappler_ArithmeticOptimizer_MinimizeBroadcasts": {"b": true}, "T": {"type": "DT_FLOAT"}}}, {"name": "dropout_5/cond/dropout/mul", "op": "Mul", "input": ["dropout/cond/dropout/truediv", "dropout_5/cond/dropout/Cast"], "attr": {"_grappler_ArithmeticOptimizer_MinimizeBroadcasts": {"b": true}, "T": {"type": "DT_FLOAT"}}}, {"name": "dropout_2/cond/dropout/mul_1", "op": "Mul", "input": ["dropout_2/cond/dropout/Shape/Switch:1", "dropout_2/cond/dropout/mul"], "attr": {"_grappler_ArithmeticOptimizer_MinimizeBroadcasts": {"b": true}, "T": {"type": "DT_FLOAT"}}}, {"name": "dropout_5/cond/dropout/mul_1", "op": "Mul", "input": ["dropout_5/cond/dropout/Shape/Switch:1", "dropout_5/cond/dropout/mul"], "attr": {"_grappler_ArithmeticOptimizer_MinimizeBroadcasts": {"b": true}, "T": {"type": "DT_FLOAT"}}}, {"name": "dropout_2/cond/Merge", "op": "Merge", "input": ["dropout_2/cond/dropout/Shape/Switch", "dropout_2/cond/dropout/mul_1"], "attr": {"T": {"type": "DT_FLOAT"}, "N": {"i": "2"}}}, {"name": "dropout_5/cond/Merge", "op": "Merge", "input": ["dropout_5/cond/dropout/Shape/Switch", "dropout_5/cond/dropout/mul_1"], "attr": {"T": {"type": "DT_FLOAT"}, "N": {"i": "2"}}}, {"name": "concatenate_2/concat", "op": "ConcatV2", "input": ["conv2d_2/BiasAdd", "dropout_2/cond/Merge", "concatenate/concat/axis"], "attr": {"Tidx": {"type": "DT_INT32"}, "T": {"type": "DT_FLOAT"}, "N": {"i": "2"}}}, {"name": "concatenate_7/concat", "op": "ConcatV2", "input": ["conv2d_9/BiasAdd", "dropout_5/cond/Merge", "concatenate/concat/axis"], "attr": {"Tidx": {"type": "DT_INT32"}, "T": {"type": "DT_FLOAT"}, "N": {"i": "2"}}}, {"name": "conv2d_transpose_3/Shape", "op": "Shape", "input": ["concatenate_2/concat"], "attr": {"T": {"type": "DT_FLOAT"}, "out_type": {"type": "DT_INT32"}}}, {"name": "conv2d_transpose_9/Shape", "op": "Shape", "input": ["concatenate_7/concat"], "attr": {"T": {"type": "DT_FLOAT"}, "out_type": {"type": "DT_INT32"}}}, {"name": "conv2d_transpose_3/strided_slice", "op": "StridedSlice", "input": ["conv2d_transpose_3/Shape", "strided_slice/stack", "stft/frame/strided_slice_1/stack", "stft/frame/strided_slice_1/stack"], "attr": {"Index": {"type": "DT_INT32"}, "T": {"type": "DT_INT32"}, "shrink_axis_mask": {"i": "1"}, "begin_mask": {"i": "0"}, "ellipsis_mask": {"i": "0"}, "new_axis_mask": {"i": "0"}, "end_mask": {"i": "0"}}}, {"name": "conv2d_transpose_3/strided_slice_1", "op": "StridedSlice", "input": ["conv2d_transpose_3/Shape", "stft/frame/strided_slice_1/stack", "stft/frame/strided_slice_1/stack_1", "stft/frame/strided_slice_1/stack"], "attr": {"new_axis_mask": {"i": "0"}, "end_mask": {"i": "0"}, "T": {"type": "DT_INT32"}, "Index": {"type": "DT_INT32"}, "shrink_axis_mask": {"i": "1"}, "ellipsis_mask": {"i": "0"}, "begin_mask": {"i": "0"}}}, {"name": "conv2d_transpose_3/strided_slice_2", "op": "StridedSlice", "input": ["conv2d_transpose_3/Shape", "stft/frame/strided_slice_1/stack_1", "conv2d_transpose/strided_slice_2/stack_1", "stft/frame/strided_slice_1/stack"], "attr": {"begin_mask": {"i": "0"}, "ellipsis_mask": {"i": "0"}, "new_axis_mask": {"i": "0"}, "end_mask": {"i": "0"}, "T": {"type": "DT_INT32"}, "Index": {"type": "DT_INT32"}, "shrink_axis_mask": {"i": "1"}}}, {"name": "conv2d_transpose_9/strided_slice", "op": "StridedSlice", "input": ["conv2d_transpose_9/Shape", "strided_slice/stack", "stft/frame/strided_slice_1/stack", "stft/frame/strided_slice_1/stack"], "attr": {"end_mask": {"i": "0"}, "T": {"type": "DT_INT32"}, "Index": {"type": "DT_INT32"}, "shrink_axis_mask": {"i": "1"}, "begin_mask": {"i": "0"}, "ellipsis_mask": {"i": "0"}, "new_axis_mask": {"i": "0"}}}, {"name": "conv2d_transpose_9/strided_slice_1", "op": "StridedSlice", "input": ["conv2d_transpose_9/Shape", "stft/frame/strided_slice_1/stack", "stft/frame/strided_slice_1/stack_1", "stft/frame/strided_slice_1/stack"], "attr": {"end_mask": {"i": "0"}, "T": {"type": "DT_INT32"}, "Index": {"type": "DT_INT32"}, "shrink_axis_mask": {"i": "1"}, "ellipsis_mask": {"i": "0"}, "begin_mask": {"i": "0"}, "new_axis_mask": {"i": "0"}}}, {"name": "conv2d_transpose_9/strided_slice_2", "op": "StridedSlice", "input": ["conv2d_transpose_9/Shape", "stft/frame/strided_slice_1/stack_1", "conv2d_transpose/strided_slice_2/stack_1", "stft/frame/strided_slice_1/stack"], "attr": {"begin_mask": {"i": "0"}, "ellipsis_mask": {"i": "0"}, "new_axis_mask": {"i": "0"}, "end_mask": {"i": "0"}, "T": {"type": "DT_INT32"}, "Index": {"type": "DT_INT32"}, "shrink_axis_mask": {"i": "1"}}}, {"name": "conv2d_transpose_3/mul", "op": "Mul", "input": ["conv2d_transpose_3/strided_slice_1", "stft/frame/zeros/packed/1"], "attr": {"T": {"type": "DT_INT32"}}}, {"name": "conv2d_transpose_3/mul_1", "op": "Mul", "input": ["conv2d_transpose_3/strided_slice_2", "stft/frame/zeros/packed/1"], "attr": {"T": {"type": "DT_INT32"}}}, {"name": "conv2d_transpose_9/mul", "op": "Mul", "input": ["conv2d_transpose_9/strided_slice_1", "stft/frame/zeros/packed/1"], "attr": {"T": {"type": "DT_INT32"}}}, {"name": "conv2d_transpose_9/mul_1", "op": "Mul", "input": ["conv2d_transpose_9/strided_slice_2", "stft/frame/zeros/packed/1"], "attr": {"T": {"type": "DT_INT32"}}}, {"name": "conv2d_transpose_3/stack", "op": "Pack", "input": ["conv2d_transpose_3/strided_slice", "conv2d_transpose_3/mul", "conv2d_transpose_3/mul_1", "conv2d_transpose_3/stack/3"], "attr": {"N": {"i": "4"}, "T": {"type": "DT_INT32"}, "axis": {"i": "0"}}}, {"name": "conv2d_transpose_9/stack", "op": "Pack", "input": ["conv2d_transpose_9/strided_slice", "conv2d_transpose_9/mul", "conv2d_transpose_9/mul_1", "conv2d_transpose_3/stack/3"], "attr": {"T": {"type": "DT_INT32"}, "axis": {"i": "0"}, "N": {"i": "4"}}}, {"name": "conv2d_transpose_3/conv2d_transpose", "op": "Conv2DBackpropInput", "input": ["conv2d_transpose_3/stack", "conv2d_transpose_3/kernel", "concatenate_2/concat"], "attr": {"dilations": {"list": {"i": ["1", "1", "1", "1"]}}, "T": {"type": "DT_FLOAT"}, "strides": {"list": {"i": ["1", "2", "2", "1"]}}, "data_format": {"s": "TkhXQw=="}, "explicit_paddings": {"list": {}}, "use_cudnn_on_gpu": {"b": true}, "padding": {"s": "U0FNRQ=="}}}, {"name": "conv2d_transpose_9/conv2d_transpose", "op": "Conv2DBackpropInput", "input": ["conv2d_transpose_9/stack", "conv2d_transpose_9/kernel", "concatenate_7/concat"], "attr": {"strides": {"list": {"i": ["1", "2", "2", "1"]}}, "data_format": {"s": "TkhXQw=="}, "use_cudnn_on_gpu": {"b": true}, "explicit_paddings": {"list": {}}, "padding": {"s": "U0FNRQ=="}, "dilations": {"list": {"i": ["1", "1", "1", "1"]}}, "T": {"type": "DT_FLOAT"}}}, {"name": "conv2d_transpose_3/BiasAdd", "op": "BiasAdd", "input": ["conv2d_transpose_3/conv2d_transpose", "conv2d_transpose_3/bias"], "attr": {"T": {"type": "DT_FLOAT"}, "data_format": {"s": "TkhXQw=="}}}, {"name": "conv2d_transpose_9/BiasAdd", "op": "BiasAdd", "input": ["conv2d_transpose_9/conv2d_transpose", "conv2d_transpose_9/bias"], "attr": {"T": {"type": "DT_FLOAT"}, "data_format": {"s": "TkhXQw=="}}}, {"name": "re_lu_3/Relu", "op": "Relu", "input": ["conv2d_transpose_3/BiasAdd"], "attr": {"T": {"type": "DT_FLOAT"}}}, {"name": "re_lu_1_4/Relu", "op": "Relu", "input": ["conv2d_transpose_9/BiasAdd"], "attr": {"T": {"type": "DT_FLOAT"}}}, {"name": "batch_normalization_9/cond/FusedBatchNorm/Switch", "op": "Switch", "input": ["re_lu_3/Relu", "keras_learning_phase"], "attr": {"T": {"type": "DT_FLOAT"}}}, {"name": "batch_normalization_21/cond/FusedBatchNorm/Switch", "op": "Switch", "input": ["re_lu_1_4/Relu", "keras_learning_phase"], "attr": {"T": {"type": "DT_FLOAT"}}}, {"name": "batch_normalization_9/cond/FusedBatchNorm_1", "op": "FusedBatchNorm", "input": ["batch_normalization_9/cond/FusedBatchNorm/Switch", "batch_normalization_9/cond/ReadVariableOp/Switch", "batch_normalization_9/cond/ReadVariableOp_1/Switch", "batch_normalization_1/cond/FusedBatchNorm_1/ReadVariableOp/Switch", "batch_normalization_1/cond/FusedBatchNorm_1/ReadVariableOp_1/Switch"], "attr": {"is_training": {"b": false}, "epsilon": {"f": 0.0010000000474974513}, "T": {"type": "DT_FLOAT"}, "data_format": {"s": "TkhXQw=="}}}, {"name": "batch_normalization_9/cond/FusedBatchNorm", "op": "FusedBatchNorm", "input": ["batch_normalization_9/cond/FusedBatchNorm/Switch:1", "batch_normalization_9/cond/ReadVariableOp/Switch:1", "batch_normalization_9/cond/ReadVariableOp_1/Switch:1", "batch_normalization/cond/Const", "batch_normalization/cond/Const"], "attr": {"is_training": {"b": true}, "epsilon": {"f": 0.0010000000474974513}, "T": {"type": "DT_FLOAT"}, "data_format": {"s": "TkhXQw=="}}}, {"name": "batch_normalization_21/cond/FusedBatchNorm_1", "op": "FusedBatchNorm", "input": ["batch_normalization_21/cond/FusedBatchNorm/Switch", "batch_normalization_21/cond/ReadVariableOp/Switch", "batch_normalization_21/cond/ReadVariableOp_1/Switch", "batch_normalization_1/cond/FusedBatchNorm_1/ReadVariableOp/Switch", "batch_normalization_1/cond/FusedBatchNorm_1/ReadVariableOp_1/Switch"], "attr": {"data_format": {"s": "TkhXQw=="}, "is_training": {"b": false}, "epsilon": {"f": 0.0010000000474974513}, "T": {"type": "DT_FLOAT"}}}, {"name": "batch_normalization_21/cond/FusedBatchNorm", "op": "FusedBatchNorm", "input": ["batch_normalization_21/cond/FusedBatchNorm/Switch:1", "batch_normalization_21/cond/ReadVariableOp/Switch:1", "batch_normalization_21/cond/ReadVariableOp_1/Switch:1", "batch_normalization/cond/Const", "batch_normalization/cond/Const"], "attr": {"data_format": {"s": "TkhXQw=="}, "is_training": {"b": true}, "epsilon": {"f": 0.0010000000474974513}, "T": {"type": "DT_FLOAT"}}}, {"name": "batch_normalization_9/cond/Merge", "op": "Merge", "input": ["batch_normalization_9/cond/FusedBatchNorm_1", "batch_normalization_9/cond/FusedBatchNorm"], "attr": {"N": {"i": "2"}, "T": {"type": "DT_FLOAT"}}}, {"name": "batch_normalization_21/cond/Merge", "op": "Merge", "input": ["batch_normalization_21/cond/FusedBatchNorm_1", "batch_normalization_21/cond/FusedBatchNorm"], "attr": {"T": {"type": "DT_FLOAT"}, "N": {"i": "2"}}}, {"name": "concatenate_3/concat", "op": "ConcatV2", "input": ["conv2d_1/BiasAdd", "batch_normalization_9/cond/Merge", "concatenate/concat/axis"], "attr": {"Tidx": {"type": "DT_INT32"}, "T": {"type": "DT_FLOAT"}, "N": {"i": "2"}}}, {"name": "concatenate_8/concat", "op": "ConcatV2", "input": ["conv2d_8/BiasAdd", "batch_normalization_21/cond/Merge", "concatenate/concat/axis"], "attr": {"N": {"i": "2"}, "Tidx": {"type": "DT_INT32"}, "T": {"type": "DT_FLOAT"}}}, {"name": "conv2d_transpose_4/Shape", "op": "Shape", "input": ["concatenate_3/concat"], "attr": {"T": {"type": "DT_FLOAT"}, "out_type": {"type": "DT_INT32"}}}, {"name": "conv2d_transpose_10/Shape", "op": "Shape", "input": ["concatenate_8/concat"], "attr": {"T": {"type": "DT_FLOAT"}, "out_type": {"type": "DT_INT32"}}}, {"name": "conv2d_transpose_4/strided_slice", "op": "StridedSlice", "input": ["conv2d_transpose_4/Shape", "strided_slice/stack", "stft/frame/strided_slice_1/stack", "stft/frame/strided_slice_1/stack"], "attr": {"shrink_axis_mask": {"i": "1"}, "begin_mask": {"i": "0"}, "ellipsis_mask": {"i": "0"}, "new_axis_mask": {"i": "0"}, "end_mask": {"i": "0"}, "T": {"type": "DT_INT32"}, "Index": {"type": "DT_INT32"}}}, {"name": "conv2d_transpose_4/strided_slice_1", "op": "StridedSlice", "input": ["conv2d_transpose_4/Shape", "stft/frame/strided_slice_1/stack", "stft/frame/strided_slice_1/stack_1", "stft/frame/strided_slice_1/stack"], "attr": {"end_mask": {"i": "0"}, "Index": {"type": "DT_INT32"}, "T": {"type": "DT_INT32"}, "shrink_axis_mask": {"i": "1"}, "ellipsis_mask": {"i": "0"}, "begin_mask": {"i": "0"}, "new_axis_mask": {"i": "0"}}}, {"name": "conv2d_transpose_4/strided_slice_2", "op": "StridedSlice", "input": ["conv2d_transpose_4/Shape", "stft/frame/strided_slice_1/stack_1", "conv2d_transpose/strided_slice_2/stack_1", "stft/frame/strided_slice_1/stack"], "attr": {"new_axis_mask": {"i": "0"}, "end_mask": {"i": "0"}, "T": {"type": "DT_INT32"}, "Index": {"type": "DT_INT32"}, "shrink_axis_mask": {"i": "1"}, "ellipsis_mask": {"i": "0"}, "begin_mask": {"i": "0"}}}, {"name": "conv2d_transpose_10/strided_slice", "op": "StridedSlice", "input": ["conv2d_transpose_10/Shape", "strided_slice/stack", "stft/frame/strided_slice_1/stack", "stft/frame/strided_slice_1/stack"], "attr": {"shrink_axis_mask": {"i": "1"}, "ellipsis_mask": {"i": "0"}, "begin_mask": {"i": "0"}, "new_axis_mask": {"i": "0"}, "end_mask": {"i": "0"}, "Index": {"type": "DT_INT32"}, "T": {"type": "DT_INT32"}}}, {"name": "conv2d_transpose_10/strided_slice_1", "op": "StridedSlice", "input": ["conv2d_transpose_10/Shape", "stft/frame/strided_slice_1/stack", "stft/frame/strided_slice_1/stack_1", "stft/frame/strided_slice_1/stack"], "attr": {"T": {"type": "DT_INT32"}, "Index": {"type": "DT_INT32"}, "shrink_axis_mask": {"i": "1"}, "ellipsis_mask": {"i": "0"}, "begin_mask": {"i": "0"}, "new_axis_mask": {"i": "0"}, "end_mask": {"i": "0"}}}, {"name": "conv2d_transpose_10/strided_slice_2", "op": "StridedSlice", "input": ["conv2d_transpose_10/Shape", "stft/frame/strided_slice_1/stack_1", "conv2d_transpose/strided_slice_2/stack_1", "stft/frame/strided_slice_1/stack"], "attr": {"shrink_axis_mask": {"i": "1"}, "begin_mask": {"i": "0"}, "ellipsis_mask": {"i": "0"}, "new_axis_mask": {"i": "0"}, "end_mask": {"i": "0"}, "T": {"type": "DT_INT32"}, "Index": {"type": "DT_INT32"}}}, {"name": "conv2d_transpose_4/mul", "op": "Mul", "input": ["conv2d_transpose_4/strided_slice_1", "stft/frame/zeros/packed/1"], "attr": {"T": {"type": "DT_INT32"}}}, {"name": "conv2d_transpose_4/mul_1", "op": "Mul", "input": ["conv2d_transpose_4/strided_slice_2", "stft/frame/zeros/packed/1"], "attr": {"T": {"type": "DT_INT32"}}}, {"name": "conv2d_transpose_10/mul", "op": "Mul", "input": ["conv2d_transpose_10/strided_slice_1", "stft/frame/zeros/packed/1"], "attr": {"T": {"type": "DT_INT32"}}}, {"name": "conv2d_transpose_10/mul_1", "op": "Mul", "input": ["conv2d_transpose_10/strided_slice_2", "stft/frame/zeros/packed/1"], "attr": {"T": {"type": "DT_INT32"}}}, {"name": "conv2d_transpose_4/stack", "op": "Pack", "input": ["conv2d_transpose_4/strided_slice", "conv2d_transpose_4/mul", "conv2d_transpose_4/mul_1", "conv2d_transpose_4/stack/3"], "attr": {"T": {"type": "DT_INT32"}, "axis": {"i": "0"}, "N": {"i": "4"}}}, {"name": "conv2d_transpose_10/stack", "op": "Pack", "input": ["conv2d_transpose_10/strided_slice", "conv2d_transpose_10/mul", "conv2d_transpose_10/mul_1", "conv2d_transpose_4/stack/3"], "attr": {"T": {"type": "DT_INT32"}, "axis": {"i": "0"}, "N": {"i": "4"}}}, {"name": "conv2d_transpose_4/conv2d_transpose", "op": "Conv2DBackpropInput", "input": ["conv2d_transpose_4/stack", "conv2d_transpose_4/kernel", "concatenate_3/concat"], "attr": {"use_cudnn_on_gpu": {"b": true}, "explicit_paddings": {"list": {}}, "padding": {"s": "U0FNRQ=="}, "dilations": {"list": {"i": ["1", "1", "1", "1"]}}, "T": {"type": "DT_FLOAT"}, "strides": {"list": {"i": ["1", "2", "2", "1"]}}, "data_format": {"s": "TkhXQw=="}}}, {"name": "conv2d_transpose_10/conv2d_transpose", "op": "Conv2DBackpropInput", "input": ["conv2d_transpose_10/stack", "conv2d_transpose_10/kernel", "concatenate_8/concat"], "attr": {"dilations": {"list": {"i": ["1", "1", "1", "1"]}}, "T": {"type": "DT_FLOAT"}, "strides": {"list": {"i": ["1", "2", "2", "1"]}}, "data_format": {"s": "TkhXQw=="}, "explicit_paddings": {"list": {}}, "use_cudnn_on_gpu": {"b": true}, "padding": {"s": "U0FNRQ=="}}}, {"name": "conv2d_transpose_4/BiasAdd", "op": "BiasAdd", "input": ["conv2d_transpose_4/conv2d_transpose", "conv2d_transpose_4/bias"], "attr": {"T": {"type": "DT_FLOAT"}, "data_format": {"s": "TkhXQw=="}}}, {"name": "conv2d_transpose_10/BiasAdd", "op": "BiasAdd", "input": ["conv2d_transpose_10/conv2d_transpose", "conv2d_transpose_10/bias"], "attr": {"data_format": {"s": "TkhXQw=="}, "T": {"type": "DT_FLOAT"}}}, {"name": "re_lu_4/Relu", "op": "Relu", "input": ["conv2d_transpose_4/BiasAdd"], "attr": {"T": {"type": "DT_FLOAT"}}}, {"name": "re_lu_1_5/Relu", "op": "Relu", "input": ["conv2d_transpose_10/BiasAdd"], "attr": {"T": {"type": "DT_FLOAT"}}}, {"name": "batch_normalization_10/cond/FusedBatchNorm/Switch", "op": "Switch", "input": ["re_lu_4/Relu", "keras_learning_phase"], "attr": {"T": {"type": "DT_FLOAT"}}}, {"name": "batch_normalization_22/cond/FusedBatchNorm/Switch", "op": "Switch", "input": ["re_lu_1_5/Relu", "keras_learning_phase"], "attr": {"T": {"type": "DT_FLOAT"}}}, {"name": "batch_normalization_10/cond/FusedBatchNorm_1", "op": "FusedBatchNorm", "input": ["batch_normalization_10/cond/FusedBatchNorm/Switch", "batch_normalization_10/cond/ReadVariableOp/Switch", "batch_normalization_10/cond/ReadVariableOp_1/Switch", "batch_normalization/cond/FusedBatchNorm_1/ReadVariableOp/Switch", "batch_normalization/cond/FusedBatchNorm_1/ReadVariableOp_1/Switch"], "attr": {"T": {"type": "DT_FLOAT"}, "data_format": {"s": "TkhXQw=="}, "is_training": {"b": false}, "epsilon": {"f": 0.0010000000474974513}}}, {"name": "batch_normalization_10/cond/FusedBatchNorm", "op": "FusedBatchNorm", "input": ["batch_normalization_10/cond/FusedBatchNorm/Switch:1", "batch_normalization_10/cond/ReadVariableOp/Switch:1", "batch_normalization_10/cond/ReadVariableOp_1/Switch:1", "batch_normalization/cond/Const", "batch_normalization/cond/Const"], "attr": {"epsilon": {"f": 0.0010000000474974513}, "T": {"type": "DT_FLOAT"}, "data_format": {"s": "TkhXQw=="}, "is_training": {"b": true}}}, {"name": "batch_normalization_22/cond/FusedBatchNorm_1", "op": "FusedBatchNorm", "input": ["batch_normalization_22/cond/FusedBatchNorm/Switch", "batch_normalization_22/cond/ReadVariableOp/Switch", "batch_normalization_22/cond/ReadVariableOp_1/Switch", "batch_normalization/cond/FusedBatchNorm_1/ReadVariableOp/Switch", "batch_normalization/cond/FusedBatchNorm_1/ReadVariableOp_1/Switch"], "attr": {"T": {"type": "DT_FLOAT"}, "data_format": {"s": "TkhXQw=="}, "is_training": {"b": false}, "epsilon": {"f": 0.0010000000474974513}}}, {"name": "batch_normalization_22/cond/FusedBatchNorm", "op": "FusedBatchNorm", "input": ["batch_normalization_22/cond/FusedBatchNorm/Switch:1", "batch_normalization_22/cond/ReadVariableOp/Switch:1", "batch_normalization_22/cond/ReadVariableOp_1/Switch:1", "batch_normalization/cond/Const", "batch_normalization/cond/Const"], "attr": {"epsilon": {"f": 0.0010000000474974513}, "T": {"type": "DT_FLOAT"}, "data_format": {"s": "TkhXQw=="}, "is_training": {"b": true}}}, {"name": "batch_normalization_10/cond/Merge", "op": "Merge", "input": ["batch_normalization_10/cond/FusedBatchNorm_1", "batch_normalization_10/cond/FusedBatchNorm"], "attr": {"T": {"type": "DT_FLOAT"}, "N": {"i": "2"}}}, {"name": "batch_normalization_22/cond/Merge", "op": "Merge", "input": ["batch_normalization_22/cond/FusedBatchNorm_1", "batch_normalization_22/cond/FusedBatchNorm"], "attr": {"T": {"type": "DT_FLOAT"}, "N": {"i": "2"}}}, {"name": "concatenate_4/concat", "op": "ConcatV2", "input": ["conv2d/BiasAdd", "batch_normalization_10/cond/Merge", "concatenate/concat/axis"], "attr": {"T": {"type": "DT_FLOAT"}, "N": {"i": "2"}, "Tidx": {"type": "DT_INT32"}}}, {"name": "concatenate_9/concat", "op": "ConcatV2", "input": ["conv2d_7/BiasAdd", "batch_normalization_22/cond/Merge", "concatenate/concat/axis"], "attr": {"T": {"type": "DT_FLOAT"}, "N": {"i": "2"}, "Tidx": {"type": "DT_INT32"}}}, {"name": "conv2d_transpose_5/Shape", "op": "Shape", "input": ["concatenate_4/concat"], "attr": {"T": {"type": "DT_FLOAT"}, "out_type": {"type": "DT_INT32"}}}, {"name": "conv2d_transpose_11/Shape", "op": "Shape", "input": ["concatenate_9/concat"], "attr": {"T": {"type": "DT_FLOAT"}, "out_type": {"type": "DT_INT32"}}}, {"name": "conv2d_transpose_5/strided_slice", "op": "StridedSlice", "input": ["conv2d_transpose_5/Shape", "strided_slice/stack", "stft/frame/strided_slice_1/stack", "stft/frame/strided_slice_1/stack"], "attr": {"shrink_axis_mask": {"i": "1"}, "begin_mask": {"i": "0"}, "ellipsis_mask": {"i": "0"}, "new_axis_mask": {"i": "0"}, "end_mask": {"i": "0"}, "T": {"type": "DT_INT32"}, "Index": {"type": "DT_INT32"}}}, {"name": "conv2d_transpose_5/strided_slice_1", "op": "StridedSlice", "input": ["conv2d_transpose_5/Shape", "stft/frame/strided_slice_1/stack", "stft/frame/strided_slice_1/stack_1", "stft/frame/strided_slice_1/stack"], "attr": {"end_mask": {"i": "0"}, "T": {"type": "DT_INT32"}, "Index": {"type": "DT_INT32"}, "shrink_axis_mask": {"i": "1"}, "begin_mask": {"i": "0"}, "ellipsis_mask": {"i": "0"}, "new_axis_mask": {"i": "0"}}}, {"name": "conv2d_transpose_5/strided_slice_2", "op": "StridedSlice", "input": ["conv2d_transpose_5/Shape", "stft/frame/strided_slice_1/stack_1", "conv2d_transpose/strided_slice_2/stack_1", "stft/frame/strided_slice_1/stack"], "attr": {"T": {"type": "DT_INT32"}, "Index": {"type": "DT_INT32"}, "shrink_axis_mask": {"i": "1"}, "ellipsis_mask": {"i": "0"}, "begin_mask": {"i": "0"}, "new_axis_mask": {"i": "0"}, "end_mask": {"i": "0"}}}, {"name": "conv2d_transpose_11/strided_slice", "op": "StridedSlice", "input": ["conv2d_transpose_11/Shape", "strided_slice/stack", "stft/frame/strided_slice_1/stack", "stft/frame/strided_slice_1/stack"], "attr": {"shrink_axis_mask": {"i": "1"}, "begin_mask": {"i": "0"}, "ellipsis_mask": {"i": "0"}, "new_axis_mask": {"i": "0"}, "end_mask": {"i": "0"}, "T": {"type": "DT_INT32"}, "Index": {"type": "DT_INT32"}}}, {"name": "conv2d_transpose_11/strided_slice_1", "op": "StridedSlice", "input": ["conv2d_transpose_11/Shape", "stft/frame/strided_slice_1/stack", "stft/frame/strided_slice_1/stack_1", "stft/frame/strided_slice_1/stack"], "attr": {"ellipsis_mask": {"i": "0"}, "begin_mask": {"i": "0"}, "new_axis_mask": {"i": "0"}, "end_mask": {"i": "0"}, "Index": {"type": "DT_INT32"}, "T": {"type": "DT_INT32"}, "shrink_axis_mask": {"i": "1"}}}, {"name": "conv2d_transpose_11/strided_slice_2", "op": "StridedSlice", "input": ["conv2d_transpose_11/Shape", "stft/frame/strided_slice_1/stack_1", "conv2d_transpose/strided_slice_2/stack_1", "stft/frame/strided_slice_1/stack"], "attr": {"Index": {"type": "DT_INT32"}, "T": {"type": "DT_INT32"}, "shrink_axis_mask": {"i": "1"}, "begin_mask": {"i": "0"}, "ellipsis_mask": {"i": "0"}, "new_axis_mask": {"i": "0"}, "end_mask": {"i": "0"}}}, {"name": "conv2d_transpose_5/mul", "op": "Mul", "input": ["conv2d_transpose_5/strided_slice_1", "stft/frame/zeros/packed/1"], "attr": {"T": {"type": "DT_INT32"}}}, {"name": "conv2d_transpose_5/mul_1", "op": "Mul", "input": ["conv2d_transpose_5/strided_slice_2", "stft/frame/zeros/packed/1"], "attr": {"T": {"type": "DT_INT32"}}}, {"name": "conv2d_transpose_11/mul", "op": "Mul", "input": ["conv2d_transpose_11/strided_slice_1", "stft/frame/zeros/packed/1"], "attr": {"T": {"type": "DT_INT32"}}}, {"name": "conv2d_transpose_11/mul_1", "op": "Mul", "input": ["conv2d_transpose_11/strided_slice_2", "stft/frame/zeros/packed/1"], "attr": {"T": {"type": "DT_INT32"}}}, {"name": "conv2d_transpose_5/stack", "op": "Pack", "input": ["conv2d_transpose_5/strided_slice", "conv2d_transpose_5/mul", "conv2d_transpose_5/mul_1", "stft/frame/strided_slice"], "attr": {"T": {"type": "DT_INT32"}, "axis": {"i": "0"}, "N": {"i": "4"}}}, {"name": "conv2d_transpose_11/stack", "op": "Pack", "input": ["conv2d_transpose_11/strided_slice", "conv2d_transpose_11/mul", "conv2d_transpose_11/mul_1", "stft/frame/strided_slice"], "attr": {"T": {"type": "DT_INT32"}, "axis": {"i": "0"}, "N": {"i": "4"}}}, {"name": "conv2d_transpose_5/conv2d_transpose", "op": "Conv2DBackpropInput", "input": ["conv2d_transpose_5/stack", "conv2d_transpose_5/kernel", "concatenate_4/concat"], "attr": {"padding": {"s": "U0FNRQ=="}, "dilations": {"list": {"i": ["1", "1", "1", "1"]}}, "T": {"type": "DT_FLOAT"}, "strides": {"list": {"i": ["1", "2", "2", "1"]}}, "data_format": {"s": "TkhXQw=="}, "use_cudnn_on_gpu": {"b": true}, "explicit_paddings": {"list": {}}}}, {"name": "conv2d_transpose_11/conv2d_transpose", "op": "Conv2DBackpropInput", "input": ["conv2d_transpose_11/stack", "conv2d_transpose_11/kernel", "concatenate_9/concat"], "attr": {"dilations": {"list": {"i": ["1", "1", "1", "1"]}}, "T": {"type": "DT_FLOAT"}, "data_format": {"s": "TkhXQw=="}, "strides": {"list": {"i": ["1", "2", "2", "1"]}}, "use_cudnn_on_gpu": {"b": true}, "explicit_paddings": {"list": {}}, "padding": {"s": "U0FNRQ=="}}}, {"name": "conv2d_transpose_5/BiasAdd", "op": "BiasAdd", "input": ["conv2d_transpose_5/conv2d_transpose", "conv2d_transpose_5/bias"], "attr": {"data_format": {"s": "TkhXQw=="}, "T": {"type": "DT_FLOAT"}}}, {"name": "conv2d_transpose_11/BiasAdd", "op": "BiasAdd", "input": ["conv2d_transpose_11/conv2d_transpose", "conv2d_transpose_11/bias"], "attr": {"T": {"type": "DT_FLOAT"}, "data_format": {"s": "TkhXQw=="}}}, {"name": "re_lu_5/Relu", "op": "Relu", "input": ["conv2d_transpose_5/BiasAdd"], "attr": {"T": {"type": "DT_FLOAT"}}}, {"name": "re_lu_1_6/Relu", "op": "Relu", "input": ["conv2d_transpose_11/BiasAdd"], "attr": {"T": {"type": "DT_FLOAT"}}}, {"name": "batch_normalization_11/cond/FusedBatchNorm/Switch", "op": "Switch", "input": ["re_lu_5/Relu", "keras_learning_phase"], "attr": {"T": {"type": "DT_FLOAT"}}}, {"name": "batch_normalization_23/cond/FusedBatchNorm/Switch", "op": "Switch", "input": ["re_lu_1_6/Relu", "keras_learning_phase"], "attr": {"T": {"type": "DT_FLOAT"}}}, {"name": "batch_normalization_11/cond/FusedBatchNorm_1", "op": "FusedBatchNorm", "input": ["batch_normalization_11/cond/FusedBatchNorm/Switch", "batch_normalization_11/cond/ReadVariableOp/Switch", "batch_normalization_11/cond/ReadVariableOp_1/Switch", "batch_normalization_11/cond/FusedBatchNorm_1/ReadVariableOp/Switch", "batch_normalization_11/cond/FusedBatchNorm_1/ReadVariableOp_1/Switch"], "attr": {"data_format": {"s": "TkhXQw=="}, "is_training": {"b": false}, "epsilon": {"f": 0.0010000000474974513}, "T": {"type": "DT_FLOAT"}}}, {"name": "batch_normalization_11/cond/FusedBatchNorm", "op": "FusedBatchNorm", "input": ["batch_normalization_11/cond/FusedBatchNorm/Switch:1", "batch_normalization_11/cond/ReadVariableOp/Switch:1", "batch_normalization_11/cond/ReadVariableOp_1/Switch:1", "batch_normalization/cond/Const", "batch_normalization/cond/Const"], "attr": {"data_format": {"s": "TkhXQw=="}, "is_training": {"b": true}, "epsilon": {"f": 0.0010000000474974513}, "T": {"type": "DT_FLOAT"}}}, {"name": "batch_normalization_23/cond/FusedBatchNorm_1", "op": "FusedBatchNorm", "input": ["batch_normalization_23/cond/FusedBatchNorm/Switch", "batch_normalization_23/cond/ReadVariableOp/Switch", "batch_normalization_23/cond/ReadVariableOp_1/Switch", "batch_normalization_11/cond/FusedBatchNorm_1/ReadVariableOp/Switch", "batch_normalization_11/cond/FusedBatchNorm_1/ReadVariableOp_1/Switch"], "attr": {"epsilon": {"f": 0.0010000000474974513}, "T": {"type": "DT_FLOAT"}, "data_format": {"s": "TkhXQw=="}, "is_training": {"b": false}}}, {"name": "batch_normalization_23/cond/FusedBatchNorm", "op": "FusedBatchNorm", "input": ["batch_normalization_23/cond/FusedBatchNorm/Switch:1", "batch_normalization_23/cond/ReadVariableOp/Switch:1", "batch_normalization_23/cond/ReadVariableOp_1/Switch:1", "batch_normalization/cond/Const", "batch_normalization/cond/Const"], "attr": {"is_training": {"b": true}, "epsilon": {"f": 0.0010000000474974513}, "T": {"type": "DT_FLOAT"}, "data_format": {"s": "TkhXQw=="}}}, {"name": "batch_normalization_11/cond/Merge", "op": "Merge", "input": ["batch_normalization_11/cond/FusedBatchNorm_1", "batch_normalization_11/cond/FusedBatchNorm"], "attr": {"T": {"type": "DT_FLOAT"}, "N": {"i": "2"}}}, {"name": "batch_normalization_23/cond/Merge", "op": "Merge", "input": ["batch_normalization_23/cond/FusedBatchNorm_1", "batch_normalization_23/cond/FusedBatchNorm"], "attr": {"T": {"type": "DT_FLOAT"}, "N": {"i": "2"}}}, {"name": "conv2d_6/SpaceToBatchND", "op": "SpaceToBatchND", "input": ["batch_normalization_11/cond/Merge", "conv2d_6/SpaceToBatchND/block_shape", "conv2d_6/SpaceToBatchND/paddings"], "attr": {"T": {"type": "DT_FLOAT"}, "Tpaddings": {"type": "DT_INT32"}, "Tblock_shape": {"type": "DT_INT32"}}}, {"name": "conv2d_13/SpaceToBatchND", "op": "SpaceToBatchND", "input": ["batch_normalization_23/cond/Merge", "conv2d_6/SpaceToBatchND/block_shape", "conv2d_6/SpaceToBatchND/paddings"], "attr": {"Tblock_shape": {"type": "DT_INT32"}, "T": {"type": "DT_FLOAT"}, "Tpaddings": {"type": "DT_INT32"}}}, {"name": "conv2d_6/Conv2D", "op": "Conv2D", "input": ["conv2d_6/SpaceToBatchND", "conv2d_6/kernel"], "device": "/device:CPU:0", "attr": {"data_format": {"s": "TkhXQw=="}, "strides": {"list": {"i": ["1", "1", "1", "1"]}}, "explicit_paddings": {"list": {}}, "use_cudnn_on_gpu": {"b": true}, "padding": {"s": "VkFMSUQ="}, "dilations": {"list": {"i": ["1", "1", "1", "1"]}}, "T": {"type": "DT_FLOAT"}}}, {"name": "conv2d_13/Conv2D", "op": "Conv2D", "input": ["conv2d_13/SpaceToBatchND", "conv2d_13/kernel"], "device": "/device:CPU:0", "attr": {"dilations": {"list": {"i": ["1", "1", "1", "1"]}}, "T": {"type": "DT_FLOAT"}, "data_format": {"s": "TkhXQw=="}, "strides": {"list": {"i": ["1", "1", "1", "1"]}}, "use_cudnn_on_gpu": {"b": true}, "explicit_paddings": {"list": {}}, "padding": {"s": "VkFMSUQ="}}}, {"name": "conv2d_6/BatchToSpaceND", "op": "BatchToSpaceND", "input": ["conv2d_6/Conv2D", "conv2d_6/SpaceToBatchND/block_shape", "conv2d_6/BatchToSpaceND/crops"], "attr": {"T": {"type": "DT_FLOAT"}, "Tblock_shape": {"type": "DT_INT32"}, "Tcrops": {"type": "DT_INT32"}}}, {"name": "conv2d_13/BatchToSpaceND", "op": "BatchToSpaceND", "input": ["conv2d_13/Conv2D", "conv2d_6/SpaceToBatchND/block_shape", "conv2d_6/BatchToSpaceND/crops"], "attr": {"Tblock_shape": {"type": "DT_INT32"}, "Tcrops": {"type": "DT_INT32"}, "T": {"type": "DT_FLOAT"}}}, {"name": "conv2d_6/BiasAdd", "op": "BiasAdd", "input": ["conv2d_6/BatchToSpaceND", "conv2d_6/bias"], "attr": {"T": {"type": "DT_FLOAT"}, "data_format": {"s": "TkhXQw=="}}}, {"name": "conv2d_13/BiasAdd", "op": "BiasAdd", "input": ["conv2d_13/BatchToSpaceND", "conv2d_13/bias"], "attr": {"T": {"type": "DT_FLOAT"}, "data_format": {"s": "TkhXQw=="}}}, {"name": "conv2d_6/Sigmoid", "op": "Sigmoid", "input": ["conv2d_6/BiasAdd"], "attr": {"T": {"type": "DT_FLOAT"}}}, {"name": "conv2d_13/Sigmoid", "op": "Sigmoid", "input": ["conv2d_13/BiasAdd"], "attr": {"T": {"type": "DT_FLOAT"}}}, {"name": "vocals_spectrogram/mul", "op": "Mul", "input": ["conv2d_6/Sigmoid", "strided_slice_3"], "attr": {"T": {"type": "DT_FLOAT"}}}, {"name": "accompaniment_spectrogram/mul", "op": "Mul", "input": ["conv2d_13/Sigmoid", "strided_slice_3"], "attr": {"T": {"type": "DT_FLOAT"}}}, {"name": "pow", "op": "Square", "input": ["vocals_spectrogram/mul"], "attr": {"T": {"type": "DT_FLOAT"}}}, {"name": "pow_1", "op": "Square", "input": ["accompaniment_spectrogram/mul"], "attr": {"T": {"type": "DT_FLOAT"}}}, {"name": "add_2", "op": "Add", "input": ["add_2/y", "pow"], "attr": {"T": {"type": "DT_FLOAT"}}}, {"name": "Sum/input", "op": "Pack", "input": ["pow", "pow_1"], "attr": {"T": {"type": "DT_FLOAT"}, "axis": {"i": "0"}, "N": {"i": "2"}}}, {"name": "add_3", "op": "Add", "input": ["add_2/y", "pow_1"], "attr": {"T": {"type": "DT_FLOAT"}}}, {"name": "Sum", "op": "Sum", "input": ["Sum/input", "stft/frame/split/split_dim"], "attr": {"keep_dims": {"b": false}, "Tidx": {"type": "DT_INT32"}, "T": {"type": "DT_FLOAT"}}}, {"name": "add_1", "op": "Add", "input": ["Sum", "add_1/y"], "attr": {"T": {"type": "DT_FLOAT"}}}, {"name": "truediv", "op": "RealDiv", "input": ["add_2", "add_1"], "attr": {"T": {"type": "DT_FLOAT"}}}, {"name": "truediv_1", "op": "RealDiv", "input": ["add_3", "add_1"], "attr": {"T": {"type": "DT_FLOAT"}}}, {"name": "Shape_3", "op": "Shape", "input": ["truediv"], "attr": {"T": {"type": "DT_FLOAT"}, "out_type": {"type": "DT_INT32"}}}, {"name": "Shape_7", "op": "Shape", "input": ["truediv_1"], "attr": {"T": {"type": "DT_FLOAT"}, "out_type": {"type": "DT_INT32"}}}, {"name": "strided_slice_4", "op": "StridedSlice", "input": ["Shape_3", "strided_slice/stack", "stft/frame/strided_slice_1/stack", "stft/frame/strided_slice_1/stack"], "attr": {"Index": {"type": "DT_INT32"}, "T": {"type": "DT_INT32"}, "shrink_axis_mask": {"i": "1"}, "begin_mask": {"i": "0"}, "ellipsis_mask": {"i": "0"}, "new_axis_mask": {"i": "0"}, "end_mask": {"i": "0"}}}, {"name": "strided_slice_5", "op": "StridedSlice", "input": ["Shape_3", "stft/frame/strided_slice_1/stack", "stft/frame/strided_slice_1/stack_1", "stft/frame/strided_slice_1/stack"], "attr": {"Index": {"type": "DT_INT32"}, "T": {"type": "DT_INT32"}, "shrink_axis_mask": {"i": "1"}, "ellipsis_mask": {"i": "0"}, "begin_mask": {"i": "0"}, "new_axis_mask": {"i": "0"}, "end_mask": {"i": "0"}}}, {"name": "strided_slice_6", "op": "StridedSlice", "input": ["Shape_3", "strided_slice_6/stack", "strided_slice/stack", "stft/frame/strided_slice_1/stack"], "attr": {"ellipsis_mask": {"i": "0"}, "begin_mask": {"i": "0"}, "new_axis_mask": {"i": "0"}, "end_mask": {"i": "0"}, "T": {"type": "DT_INT32"}, "Index": {"type": "DT_INT32"}, "shrink_axis_mask": {"i": "1"}}}, {"name": "strided_slice_14", "op": "StridedSlice", "input": ["Shape_7", "strided_slice/stack", "stft/frame/strided_slice_1/stack", "stft/frame/strided_slice_1/stack"], "attr": {"shrink_axis_mask": {"i": "1"}, "ellipsis_mask": {"i": "0"}, "begin_mask": {"i": "0"}, "new_axis_mask": {"i": "0"}, "end_mask": {"i": "0"}, "T": {"type": "DT_INT32"}, "Index": {"type": "DT_INT32"}}}, {"name": "strided_slice_15", "op": "StridedSlice", "input": ["Shape_7", "stft/frame/strided_slice_1/stack", "stft/frame/strided_slice_1/stack_1", "stft/frame/strided_slice_1/stack"], "attr": {"begin_mask": {"i": "0"}, "ellipsis_mask": {"i": "0"}, "new_axis_mask": {"i": "0"}, "end_mask": {"i": "0"}, "T": {"type": "DT_INT32"}, "Index": {"type": "DT_INT32"}, "shrink_axis_mask": {"i": "1"}}}, {"name": "strided_slice_16", "op": "StridedSlice", "input": ["Shape_7", "strided_slice_6/stack", "strided_slice/stack", "stft/frame/strided_slice_1/stack"], "attr": {"end_mask": {"i": "0"}, "Index": {"type": "DT_INT32"}, "T": {"type": "DT_INT32"}, "shrink_axis_mask": {"i": "1"}, "begin_mask": {"i": "0"}, "ellipsis_mask": {"i": "0"}, "new_axis_mask": {"i": "0"}}}, {"name": "zeros/packed", "op": "Pack", "input": ["strided_slice_4", "strided_slice_5", "stft/frame/strided_slice", "strided_slice_6"], "attr": {"axis": {"i": "0"}, "N": {"i": "4"}, "T": {"type": "DT_INT32"}}}, {"name": "zeros_1/packed", "op": "Pack", "input": ["strided_slice_14", "strided_slice_15", "stft/frame/strided_slice", "strided_slice_16"], "attr": {"axis": {"i": "0"}, "N": {"i": "4"}, "T": {"type": "DT_INT32"}}}, {"name": "zeros", "op": "Fill", "input": ["zeros/packed", "stft/frame/Const"], "attr": {"index_type": {"type": "DT_INT32"}, "T": {"type": "DT_FLOAT"}}}, {"name": "zeros_1", "op": "Fill", "input": ["zeros_1/packed", "stft/frame/Const"], "attr": {"T": {"type": "DT_FLOAT"}, "index_type": {"type": "DT_INT32"}}}, {"name": "Tile", "op": "Tile", "input": ["zeros", "Tile/multiples"], "attr": {"Tmultiples": {"type": "DT_INT32"}, "T": {"type": "DT_FLOAT"}}}, {"name": "Tile_1", "op": "Tile", "input": ["zeros_1", "Tile/multiples"], "attr": {"T": {"type": "DT_FLOAT"}, "Tmultiples": {"type": "DT_INT32"}}}, {"name": "concat_1", "op": "ConcatV2", "input": ["truediv", "Tile", "stft/frame/zeros/packed/1"], "attr": {"N": {"i": "2"}, "Tidx": {"type": "DT_INT32"}, "T": {"type": "DT_FLOAT"}}}, {"name": "concat_3", "op": "ConcatV2", "input": ["truediv_1", "Tile_1", "stft/frame/zeros/packed/1"], "attr": {"Tidx": {"type": "DT_INT32"}, "T": {"type": "DT_FLOAT"}, "N": {"i": "2"}}}, {"name": "Shape_4", "op": "Shape", "input": ["concat_1"], "attr": {"T": {"type": "DT_FLOAT"}, "out_type": {"type": "DT_INT32"}}}, {"name": "Shape_8", "op": "Shape", "input": ["concat_3"], "attr": {"T": {"type": "DT_FLOAT"}, "out_type": {"type": "DT_INT32"}}}, {"name": "strided_slice_7", "op": "StridedSlice", "input": ["Shape_4", "strided_slice/stack", "stft/frame/strided_slice_1/stack", "stft/frame/strided_slice_1/stack"], "attr": {"shrink_axis_mask": {"i": "1"}, "ellipsis_mask": {"i": "0"}, "begin_mask": {"i": "0"}, "new_axis_mask": {"i": "0"}, "end_mask": {"i": "0"}, "T": {"type": "DT_INT32"}, "Index": {"type": "DT_INT32"}}}, {"name": "strided_slice_8", "op": "StridedSlice", "input": ["Shape_4", "stft/frame/strided_slice_1/stack", "stft/frame/strided_slice_1/stack_1", "stft/frame/strided_slice_1/stack"], "attr": {"T": {"type": "DT_INT32"}, "Index": {"type": "DT_INT32"}, "shrink_axis_mask": {"i": "1"}, "begin_mask": {"i": "0"}, "ellipsis_mask": {"i": "0"}, "new_axis_mask": {"i": "0"}, "end_mask": {"i": "0"}}}, {"name": "strided_slice_9", "op": "StridedSlice", "input": ["Shape_4", "stft/frame/strided_slice_1/stack_1", "strided_slice/stack", "stft/frame/strided_slice_1/stack"], "attr": {"Index": {"type": "DT_INT32"}, "T": {"type": "DT_INT32"}, "shrink_axis_mask": {"i": "0"}, "begin_mask": {"i": "0"}, "ellipsis_mask": {"i": "0"}, "new_axis_mask": {"i": "0"}, "end_mask": {"i": "1"}}}, {"name": "strided_slice_17", "op": "StridedSlice", "input": ["Shape_8", "strided_slice/stack", "stft/frame/strided_slice_1/stack", "stft/frame/strided_slice_1/stack"], "attr": {"Index": {"type": "DT_INT32"}, "T": {"type": "DT_INT32"}, "shrink_axis_mask": {"i": "1"}, "ellipsis_mask": {"i": "0"}, "begin_mask": {"i": "0"}, "new_axis_mask": {"i": "0"}, "end_mask": {"i": "0"}}}, {"name": "strided_slice_18", "op": "StridedSlice", "input": ["Shape_8", "stft/frame/strided_slice_1/stack", "stft/frame/strided_slice_1/stack_1", "stft/frame/strided_slice_1/stack"], "attr": {"ellipsis_mask": {"i": "0"}, "begin_mask": {"i": "0"}, "new_axis_mask": {"i": "0"}, "end_mask": {"i": "0"}, "T": {"type": "DT_INT32"}, "Index": {"type": "DT_INT32"}, "shrink_axis_mask": {"i": "1"}}}, {"name": "strided_slice_19", "op": "StridedSlice", "input": ["Shape_8", "stft/frame/strided_slice_1/stack_1", "strided_slice/stack", "stft/frame/strided_slice_1/stack"], "attr": {"end_mask": {"i": "1"}, "T": {"type": "DT_INT32"}, "Index": {"type": "DT_INT32"}, "shrink_axis_mask": {"i": "0"}, "begin_mask": {"i": "0"}, "ellipsis_mask": {"i": "0"}, "new_axis_mask": {"i": "0"}}}, {"name": "mul", "op": "Mul", "input": ["strided_slice_7", "strided_slice_8"], "attr": {"T": {"type": "DT_INT32"}}}, {"name": "mul_3", "op": "Mul", "input": ["strided_slice_17", "strided_slice_18"], "attr": {"T": {"type": "DT_INT32"}}}, {"name": "ConstantFolding/concat_2/values_0_const_axis", "op": "Const", "input": ["^mul"], "attr": {"value": {"tensor": {"dtype": "DT_INT32", "tensorShape": {}}}, "dtype": {"type": "DT_INT32"}}}, {"name": "ConstantFolding/concat_4/values_0_const_axis", "op": "Const", "input": ["^mul_3"], "attr": {"value": {"tensor": {"dtype": "DT_INT32", "tensorShape": {}}}, "dtype": {"type": "DT_INT32"}}}, {"name": "concat_2/values_0", "op": "ExpandDims", "input": ["mul", "ConstantFolding/concat_2/values_0_const_axis"], "attr": {"T": {"type": "DT_INT32"}, "Tdim": {"type": "DT_INT32"}}}, {"name": "concat_4/values_0", "op": "ExpandDims", "input": ["mul_3", "ConstantFolding/concat_4/values_0_const_axis"], "attr": {"Tdim": {"type": "DT_INT32"}, "T": {"type": "DT_INT32"}}}, {"name": "concat_2", "op": "ConcatV2", "input": ["concat_2/values_0", "strided_slice_9", "stft/frame/split/split_dim"], "attr": {"N": {"i": "2"}, "Tidx": {"type": "DT_INT32"}, "T": {"type": "DT_INT32"}}}, {"name": "concat_4", "op": "ConcatV2", "input": ["concat_4/values_0", "strided_slice_19", "stft/frame/split/split_dim"], "attr": {"T": {"type": "DT_INT32"}, "N": {"i": "2"}, "Tidx": {"type": "DT_INT32"}}}, {"name": "Reshape_1", "op": "Reshape", "input": ["concat_1", "concat_2"], "attr": {"T": {"type": "DT_FLOAT"}, "Tshape": {"type": "DT_INT32"}}}, {"name": "Reshape_2", "op": "Reshape", "input": ["concat_3", "concat_4"], "attr": {"Tshape": {"type": "DT_INT32"}, "T": {"type": "DT_FLOAT"}}}, {"name": "strided_slice_11", "op": "StridedSlice", "input": ["Reshape_1", "stft/frame/zeros_like", "strided_slice_11/stack_1", "inverse_stft_1/overlap_and_add/strided_slice_4/stack_2"], "attr": {"shrink_axis_mask": {"i": "0"}, "ellipsis_mask": {"i": "2"}, "begin_mask": {"i": "1"}, "new_axis_mask": {"i": "0"}, "end_mask": {"i": "0"}, "Index": {"type": "DT_INT32"}, "T": {"type": "DT_FLOAT"}}}, {"name": "strided_slice_21", "op": "StridedSlice", "input": ["Reshape_2", "stft/frame/zeros_like", "strided_slice_11/stack_1", "inverse_stft_1/overlap_and_add/strided_slice_4/stack_2"], "attr": {"shrink_axis_mask": {"i": "0"}, "begin_mask": {"i": "1"}, "ellipsis_mask": {"i": "2"}, "new_axis_mask": {"i": "0"}, "end_mask": {"i": "0"}, "T": {"type": "DT_FLOAT"}, "Index": {"type": "DT_INT32"}}}, {"name": "Cast", "op": "Cast", "input": ["strided_slice_11"], "attr": {"SrcT": {"type": "DT_FLOAT"}, "Truncate": {"b": false}, "DstT": {"type": "DT_COMPLEX64"}}}, {"name": "Cast_1", "op": "Cast", "input": ["strided_slice_21"], "attr": {"SrcT": {"type": "DT_FLOAT"}, "Truncate": {"b": false}, "DstT": {"type": "DT_COMPLEX64"}}}, {"name": "mul_1", "op": "Mul", "input": ["Cast", "transpose_1"], "attr": {"T": {"type": "DT_COMPLEX64"}}}, {"name": "mul_4", "op": "Mul", "input": ["Cast_1", "transpose_1"], "attr": {"T": {"type": "DT_COMPLEX64"}}}, {"name": "transpose_2", "op": "Transpose", "input": ["mul_1", "transpose_2/perm"], "attr": {"Tperm": {"type": "DT_INT32"}, "T": {"type": "DT_COMPLEX64"}}}, {"name": "transpose_4", "op": "Transpose", "input": ["mul_4", "transpose_2/perm"], "attr": {"Tperm": {"type": "DT_INT32"}, "T": {"type": "DT_COMPLEX64"}}}, {"name": "inverse_stft/irfft", "op": "IRFFT", "input": ["transpose_2", "stft/rfft/packed"]}, {"name": "inverse_stft_1/irfft", "op": "IRFFT", "input": ["transpose_4", "stft/rfft/packed"]}, {"name": "inverse_stft/mul", "op": "Mul", "input": ["inverse_stft/irfft", "stft/hann_window/sub_2"], "attr": {"T": {"type": "DT_FLOAT"}}}, {"name": "inverse_stft_1/mul", "op": "Mul", "input": ["inverse_stft_1/irfft", "stft/hann_window/sub_2"], "attr": {"T": {"type": "DT_FLOAT"}}}, {"name": "inverse_stft/overlap_and_add/Shape", "op": "Shape", "input": ["inverse_stft/mul"], "attr": {"T": {"type": "DT_FLOAT"}, "out_type": {"type": "DT_INT32"}}}, {"name": "inverse_stft_1/overlap_and_add/Shape", "op": "Shape", "input": ["inverse_stft_1/mul"], "attr": {"T": {"type": "DT_FLOAT"}, "out_type": {"type": "DT_INT32"}}}, {"name": "inverse_stft/overlap_and_add/strided_slice", "op": "StridedSlice", "input": ["inverse_stft/overlap_and_add/Shape", "strided_slice/stack", "inverse_stft/overlap_and_add/strided_slice/stack_1", "stft/frame/strided_slice_1/stack"], "attr": {"Index": {"type": "DT_INT32"}, "T": {"type": "DT_INT32"}, "shrink_axis_mask": {"i": "0"}, "begin_mask": {"i": "1"}, "ellipsis_mask": {"i": "0"}, "new_axis_mask": {"i": "0"}, "end_mask": {"i": "0"}}}, {"name": "inverse_stft/overlap_and_add/strided_slice_1", "op": "StridedSlice", "input": ["inverse_stft/overlap_and_add/Shape", "strided_slice_6/stack", "strided_slice/stack", "stft/frame/strided_slice_1/stack"], "attr": {"end_mask": {"i": "0"}, "T": {"type": "DT_INT32"}, "Index": {"type": "DT_INT32"}, "shrink_axis_mask": {"i": "1"}, "ellipsis_mask": {"i": "0"}, "begin_mask": {"i": "0"}, "new_axis_mask": {"i": "0"}}}, {"name": "inverse_stft/overlap_and_add/strided_slice_2", "op": "StridedSlice", "input": ["inverse_stft/overlap_and_add/Shape", "inverse_stft/overlap_and_add/strided_slice/stack_1", "strided_slice_6/stack", "stft/frame/strided_slice_1/stack"], "attr": {"Index": {"type": "DT_INT32"}, "T": {"type": "DT_INT32"}, "shrink_axis_mask": {"i": "1"}, "begin_mask": {"i": "0"}, "ellipsis_mask": {"i": "0"}, "new_axis_mask": {"i": "0"}, "end_mask": {"i": "0"}}}, {"name": "inverse_stft_1/overlap_and_add/strided_slice", "op": "StridedSlice", "input": ["inverse_stft_1/overlap_and_add/Shape", "strided_slice/stack", "inverse_stft/overlap_and_add/strided_slice/stack_1", "stft/frame/strided_slice_1/stack"], "attr": {"shrink_axis_mask": {"i": "0"}, "ellipsis_mask": {"i": "0"}, "begin_mask": {"i": "1"}, "new_axis_mask": {"i": "0"}, "end_mask": {"i": "0"}, "T": {"type": "DT_INT32"}, "Index": {"type": "DT_INT32"}}}, {"name": "inverse_stft_1/overlap_and_add/strided_slice_1", "op": "StridedSlice", "input": ["inverse_stft_1/overlap_and_add/Shape", "strided_slice_6/stack", "strided_slice/stack", "stft/frame/strided_slice_1/stack"], "attr": {"T": {"type": "DT_INT32"}, "Index": {"type": "DT_INT32"}, "shrink_axis_mask": {"i": "1"}, "begin_mask": {"i": "0"}, "ellipsis_mask": {"i": "0"}, "new_axis_mask": {"i": "0"}, "end_mask": {"i": "0"}}}, {"name": "inverse_stft_1/overlap_and_add/strided_slice_2", "op": "StridedSlice", "input": ["inverse_stft_1/overlap_and_add/Shape", "inverse_stft/overlap_and_add/strided_slice/stack_1", "strided_slice_6/stack", "stft/frame/strided_slice_1/stack"], "attr": {"shrink_axis_mask": {"i": "1"}, "begin_mask": {"i": "0"}, "ellipsis_mask": {"i": "0"}, "new_axis_mask": {"i": "0"}, "end_mask": {"i": "0"}, "Index": {"type": "DT_INT32"}, "T": {"type": "DT_INT32"}}}, {"name": "inverse_stft/overlap_and_add/Neg", "op": "Neg", "input": ["inverse_stft/overlap_and_add/strided_slice_1"], "attr": {"T": {"type": "DT_INT32"}}}, {"name": "inverse_stft/overlap_and_add/sub", "op": "Sub", "input": ["inverse_stft/overlap_and_add/strided_slice_2", "stft/frame/strided_slice"], "attr": {"T": {"type": "DT_INT32"}}}, {"name": "inverse_stft_1/overlap_and_add/Neg", "op": "Neg", "input": ["inverse_stft_1/overlap_and_add/strided_slice_1"], "attr": {"T": {"type": "DT_INT32"}}}, {"name": "inverse_stft_1/overlap_and_add/sub", "op": "Sub", "input": ["inverse_stft_1/overlap_and_add/strided_slice_2", "stft/frame/strided_slice"], "attr": {"T": {"type": "DT_INT32"}}}, {"name": "inverse_stft/overlap_and_add/floordiv", "op": "FloorDiv", "input": ["inverse_stft/overlap_and_add/Neg", "stft/frame_step"], "attr": {"T": {"type": "DT_INT32"}}}, {"name": "inverse_stft/overlap_and_add/mul", "op": "Mul", "input": ["inverse_stft/overlap_and_add/sub", "stft/frame_step"], "attr": {"T": {"type": "DT_INT32"}}}, {"name": "inverse_stft_1/overlap_and_add/floordiv", "op": "FloorDiv", "input": ["inverse_stft_1/overlap_and_add/Neg", "stft/frame_step"], "attr": {"T": {"type": "DT_INT32"}}}, {"name": "inverse_stft_1/overlap_and_add/mul", "op": "Mul", "input": ["inverse_stft_1/overlap_and_add/sub", "stft/frame_step"], "attr": {"T": {"type": "DT_INT32"}}}, {"name": "inverse_stft/overlap_and_add/Neg_1", "op": "Neg", "input": ["inverse_stft/overlap_and_add/floordiv"], "attr": {"T": {"type": "DT_INT32"}}}, {"name": "inverse_stft/overlap_and_add/add_1", "op": "Sub", "input": ["inverse_stft/overlap_and_add/strided_slice_2", "inverse_stft/overlap_and_add/floordiv"], "attr": {"T": {"type": "DT_INT32"}}}, {"name": "inverse_stft/overlap_and_add/add", "op": "Add", "input": ["inverse_stft/overlap_and_add/mul", "inverse_stft/overlap_and_add/strided_slice_1"], "attr": {"T": {"type": "DT_INT32"}}}, {"name": "inverse_stft_1/overlap_and_add/Neg_1", "op": "Neg", "input": ["inverse_stft_1/overlap_and_add/floordiv"], "attr": {"T": {"type": "DT_INT32"}}}, {"name": "inverse_stft_1/overlap_and_add/add_1", "op": "Sub", "input": ["inverse_stft_1/overlap_and_add/strided_slice_2", "inverse_stft_1/overlap_and_add/floordiv"], "attr": {"T": {"type": "DT_INT32"}}}, {"name": "inverse_stft_1/overlap_and_add/add", "op": "Add", "input": ["inverse_stft_1/overlap_and_add/mul", "inverse_stft_1/overlap_and_add/strided_slice_1"], "attr": {"T": {"type": "DT_INT32"}}}, {"name": "inverse_stft/overlap_and_add/mul_1", "op": "Mul", "input": ["inverse_stft/overlap_and_add/Neg_1", "stft/frame_step"], "attr": {"T": {"type": "DT_INT32"}}}, {"name": "inverse_stft/overlap_and_add/concat/values_1/0", "op": "Pack", "input": ["stft/frame/split/split_dim", "inverse_stft/overlap_and_add/Neg_1"], "attr": {"T": {"type": "DT_INT32"}, "axis": {"i": "0"}, "N": {"i": "2"}}}, {"name": "inverse_stft/overlap_and_add/concat_1/values_1", "op": "Pack", "input": ["inverse_stft/overlap_and_add/add_1", "inverse_stft/overlap_and_add/Neg_1", "stft/frame_step"], "attr": {"T": {"type": "DT_INT32"}, "axis": {"i": "0"}, "N": {"i": "3"}}}, {"name": "inverse_stft/overlap_and_add/mul_2", "op": "Mul", "input": ["inverse_stft/overlap_and_add/Neg_1", "inverse_stft/overlap_and_add/add_1"], "attr": {"T": {"type": "DT_INT32"}}}, {"name": "inverse_stft/overlap_and_add/sub_2", "op": "Sub", "input": ["inverse_stft/overlap_and_add/add_1", "stft/frame/strided_slice"], "attr": {"T": {"type": "DT_INT32"}}}, {"name": "inverse_stft/overlap_and_add/strided_slice_4/stack_1", "op": "Pack", "input": ["stft/frame/split/split_dim", "inverse_stft/overlap_and_add/add"], "attr": {"T": {"type": "DT_INT32"}, "axis": {"i": "0"}, "N": {"i": "2"}}}, {"name": "inverse_stft_1/overlap_and_add/concat/values_1/0", "op": "Pack", "input": ["stft/frame/split/split_dim", "inverse_stft_1/overlap_and_add/Neg_1"], "attr": {"T": {"type": "DT_INT32"}, "axis": {"i": "0"}, "N": {"i": "2"}}}, {"name": "inverse_stft_1/overlap_and_add/mul_1", "op": "Mul", "input": ["inverse_stft_1/overlap_and_add/Neg_1", "stft/frame_step"], "attr": {"T": {"type": "DT_INT32"}}}, {"name": "inverse_stft_1/overlap_and_add/concat_1/values_1", "op": "Pack", "input": ["inverse_stft_1/overlap_and_add/add_1", "inverse_stft_1/overlap_and_add/Neg_1", "stft/frame_step"], "attr": {"N": {"i": "3"}, "T": {"type": "DT_INT32"}, "axis": {"i": "0"}}}, {"name": "inverse_stft_1/overlap_and_add/mul_2", "op": "Mul", "input": ["inverse_stft_1/overlap_and_add/Neg_1", "inverse_stft_1/overlap_and_add/add_1"], "attr": {"T": {"type": "DT_INT32"}}}, {"name": "inverse_stft_1/overlap_and_add/sub_2", "op": "Sub", "input": ["inverse_stft_1/overlap_and_add/add_1", "stft/frame/strided_slice"], "attr": {"T": {"type": "DT_INT32"}}}, {"name": "inverse_stft_1/overlap_and_add/strided_slice_4/stack_1", "op": "Pack", "input": ["stft/frame/split/split_dim", "inverse_stft_1/overlap_and_add/add"], "attr": {"T": {"type": "DT_INT32"}, "axis": {"i": "0"}, "N": {"i": "2"}}}, {"name": "inverse_stft/overlap_and_add/sub_1", "op": "Sub", "input": ["inverse_stft/overlap_and_add/mul_1", "inverse_stft/overlap_and_add/strided_slice_1"], "attr": {"T": {"type": "DT_INT32"}}}, {"name": "inverse_stft/overlap_and_add/concat_1", "op": "ConcatV2", "input": ["inverse_stft/overlap_and_add/strided_slice", "inverse_stft/overlap_and_add/concat_1/values_1", "stft/frame/split/split_dim"], "attr": {"Tidx": {"type": "DT_INT32"}, "T": {"type": "DT_INT32"}, "N": {"i": "2"}}}, {"name": "inverse_stft/overlap_and_add/concat_3/values_1", "op": "Pack", "input": ["inverse_stft/overlap_and_add/mul_2", "stft/frame_step"], "attr": {"T": {"type": "DT_INT32"}, "axis": {"i": "0"}, "N": {"i": "2"}}}, {"name": "inverse_stft/overlap_and_add/mul_3", "op": "Mul", "input": ["inverse_stft/overlap_and_add/Neg_1", "inverse_stft/overlap_and_add/sub_2"], "attr": {"T": {"type": "DT_INT32"}}}, {"name": "inverse_stft/overlap_and_add/concat_4/values_1", "op": "Pack", "input": ["inverse_stft/overlap_and_add/Neg_1", "inverse_stft/overlap_and_add/sub_2", "stft/frame_step"], "attr": {"T": {"type": "DT_INT32"}, "axis": {"i": "0"}, "N": {"i": "3"}}}, {"name": "inverse_stft/overlap_and_add/mul_4", "op": "Mul", "input": ["inverse_stft/overlap_and_add/sub_2", "stft/frame_step"], "attr": {"T": {"type": "DT_INT32"}}}, {"name": "inverse_stft_1/overlap_and_add/sub_1", "op": "Sub", "input": ["inverse_stft_1/overlap_and_add/mul_1", "inverse_stft_1/overlap_and_add/strided_slice_1"], "attr": {"T": {"type": "DT_INT32"}}}, {"name": "inverse_stft_1/overlap_and_add/concat_1", "op": "ConcatV2", "input": ["inverse_stft_1/overlap_and_add/strided_slice", "inverse_stft_1/overlap_and_add/concat_1/values_1", "stft/frame/split/split_dim"], "attr": {"Tidx": {"type": "DT_INT32"}, "T": {"type": "DT_INT32"}, "N": {"i": "2"}}}, {"name": "inverse_stft_1/overlap_and_add/concat_3/values_1", "op": "Pack", "input": ["inverse_stft_1/overlap_and_add/mul_2", "stft/frame_step"], "attr": {"T": {"type": "DT_INT32"}, "axis": {"i": "0"}, "N": {"i": "2"}}}, {"name": "inverse_stft_1/overlap_and_add/mul_3", "op": "Mul", "input": ["inverse_stft_1/overlap_and_add/Neg_1", "inverse_stft_1/overlap_and_add/sub_2"], "attr": {"T": {"type": "DT_INT32"}}}, {"name": "inverse_stft_1/overlap_and_add/concat_4/values_1", "op": "Pack", "input": ["inverse_stft_1/overlap_and_add/Neg_1", "inverse_stft_1/overlap_and_add/sub_2", "stft/frame_step"], "attr": {"N": {"i": "3"}, "T": {"type": "DT_INT32"}, "axis": {"i": "0"}}}, {"name": "inverse_stft_1/overlap_and_add/mul_4", "op": "Mul", "input": ["inverse_stft_1/overlap_and_add/sub_2", "stft/frame_step"], "attr": {"T": {"type": "DT_INT32"}}}, {"name": "inverse_stft/overlap_and_add/concat/values_1/1", "op": "Pack", "input": ["stft/frame/split/split_dim", "inverse_stft/overlap_and_add/sub_1"], "attr": {"axis": {"i": "0"}, "N": {"i": "2"}, "T": {"type": "DT_INT32"}}}, {"name": "inverse_stft/overlap_and_add/concat_3", "op": "ConcatV2", "input": ["inverse_stft/overlap_and_add/strided_slice", "inverse_stft/overlap_and_add/concat_3/values_1", "stft/frame/split/split_dim"], "attr": {"N": {"i": "2"}, "Tidx": {"type": "DT_INT32"}, "T": {"type": "DT_INT32"}}}, {"name": "inverse_stft/overlap_and_add/strided_slice_3/stack_1", "op": "Pack", "input": ["stft/frame/split/split_dim", "inverse_stft/overlap_and_add/mul_3", "stft/frame/split/split_dim"], "attr": {"T": {"type": "DT_INT32"}, "axis": {"i": "0"}, "N": {"i": "3"}}}, {"name": "inverse_stft/overlap_and_add/concat_4", "op": "ConcatV2", "input": ["inverse_stft/overlap_and_add/strided_slice", "inverse_stft/overlap_and_add/concat_4/values_1", "stft/frame/split/split_dim"], "attr": {"T": {"type": "DT_INT32"}, "N": {"i": "2"}, "Tidx": {"type": "DT_INT32"}}}, {"name": "ConstantFolding/inverse_stft/overlap_and_add/concat_5/values_1_const_axis", "op": "Const", "input": ["^inverse_stft/overlap_and_add/mul_4"], "attr": {"dtype": {"type": "DT_INT32"}, "value": {"tensor": {"dtype": "DT_INT32", "tensorShape": {}}}}}, {"name": "inverse_stft_1/overlap_and_add/concat/values_1/1", "op": "Pack", "input": ["stft/frame/split/split_dim", "inverse_stft_1/overlap_and_add/sub_1"], "attr": {"T": {"type": "DT_INT32"}, "axis": {"i": "0"}, "N": {"i": "2"}}}, {"name": "inverse_stft_1/overlap_and_add/concat_3", "op": "ConcatV2", "input": ["inverse_stft_1/overlap_and_add/strided_slice", "inverse_stft_1/overlap_and_add/concat_3/values_1", "stft/frame/split/split_dim"], "attr": {"Tidx": {"type": "DT_INT32"}, "T": {"type": "DT_INT32"}, "N": {"i": "2"}}}, {"name": "inverse_stft_1/overlap_and_add/strided_slice_3/stack_1", "op": "Pack", "input": ["stft/frame/split/split_dim", "inverse_stft_1/overlap_and_add/mul_3", "stft/frame/split/split_dim"], "attr": {"T": {"type": "DT_INT32"}, "axis": {"i": "0"}, "N": {"i": "3"}}}, {"name": "inverse_stft_1/overlap_and_add/concat_4", "op": "ConcatV2", "input": ["inverse_stft_1/overlap_and_add/strided_slice", "inverse_stft_1/overlap_and_add/concat_4/values_1", "stft/frame/split/split_dim"], "attr": {"Tidx": {"type": "DT_INT32"}, "T": {"type": "DT_INT32"}, "N": {"i": "2"}}}, {"name": "ConstantFolding/inverse_stft_1/overlap_and_add/concat_5/values_1_const_axis", "op": "Const", "input": ["^inverse_stft_1/overlap_and_add/mul_4"], "attr": {"value": {"tensor": {"dtype": "DT_INT32", "tensorShape": {}}}, "dtype": {"type": "DT_INT32"}}}, {"name": "inverse_stft/overlap_and_add/concat/values_1", "op": "Pack", "input": ["inverse_stft/overlap_and_add/concat/values_1/0", "inverse_stft/overlap_and_add/concat/values_1/1"], "attr": {"T": {"type": "DT_INT32"}, "axis": {"i": "0"}, "N": {"i": "2"}}}, {"name": "inverse_stft/overlap_and_add/concat_5/values_1", "op": "ExpandDims", "input": ["inverse_stft/overlap_and_add/mul_4", "ConstantFolding/inverse_stft/overlap_and_add/concat_5/values_1_const_axis"], "attr": {"T": {"type": "DT_INT32"}, "Tdim": {"type": "DT_INT32"}}}, {"name": "inverse_stft_1/overlap_and_add/concat/values_1", "op": "Pack", "input": ["inverse_stft_1/overlap_and_add/concat/values_1/0", "inverse_stft_1/overlap_and_add/concat/values_1/1"], "attr": {"axis": {"i": "0"}, "N": {"i": "2"}, "T": {"type": "DT_INT32"}}}, {"name": "inverse_stft_1/overlap_and_add/concat_5/values_1", "op": "ExpandDims", "input": ["inverse_stft_1/overlap_and_add/mul_4", "ConstantFolding/inverse_stft_1/overlap_and_add/concat_5/values_1_const_axis"], "attr": {"T": {"type": "DT_INT32"}, "Tdim": {"type": "DT_INT32"}}}, {"name": "inverse_stft/overlap_and_add/concat", "op": "ConcatV2", "input": ["stft/frame/zeros", "inverse_stft/overlap_and_add/concat/values_1", "stft/frame/split/split_dim"], "attr": {"Tidx": {"type": "DT_INT32"}, "T": {"type": "DT_INT32"}, "N": {"i": "2"}}}, {"name": "inverse_stft/overlap_and_add/concat_5", "op": "ConcatV2", "input": ["inverse_stft/overlap_and_add/strided_slice", "inverse_stft/overlap_and_add/concat_5/values_1", "stft/frame/split/split_dim"], "attr": {"N": {"i": "2"}, "Tidx": {"type": "DT_INT32"}, "T": {"type": "DT_INT32"}}}, {"name": "inverse_stft_1/overlap_and_add/concat", "op": "ConcatV2", "input": ["stft/frame/zeros", "inverse_stft_1/overlap_and_add/concat/values_1", "stft/frame/split/split_dim"], "attr": {"T": {"type": "DT_INT32"}, "N": {"i": "2"}, "Tidx": {"type": "DT_INT32"}}}, {"name": "inverse_stft_1/overlap_and_add/concat_5", "op": "ConcatV2", "input": ["inverse_stft_1/overlap_and_add/strided_slice", "inverse_stft_1/overlap_and_add/concat_5/values_1", "stft/frame/split/split_dim"], "attr": {"N": {"i": "2"}, "Tidx": {"type": "DT_INT32"}, "T": {"type": "DT_INT32"}}}, {"name": "inverse_stft/overlap_and_add/Pad", "op": "Pad", "input": ["inverse_stft/mul", "inverse_stft/overlap_and_add/concat"], "attr": {"Tpaddings": {"type": "DT_INT32"}, "T": {"type": "DT_FLOAT"}}}, {"name": "inverse_stft_1/overlap_and_add/Pad", "op": "Pad", "input": ["inverse_stft_1/mul", "inverse_stft_1/overlap_and_add/concat"], "attr": {"Tpaddings": {"type": "DT_INT32"}, "T": {"type": "DT_FLOAT"}}}, {"name": "inverse_stft/overlap_and_add/Reshape", "op": "Reshape", "input": ["inverse_stft/overlap_and_add/Pad", "inverse_stft/overlap_and_add/concat_1"], "attr": {"T": {"type": "DT_FLOAT"}, "Tshape": {"type": "DT_INT32"}}}, {"name": "inverse_stft_1/overlap_and_add/Reshape", "op": "Reshape", "input": ["inverse_stft_1/overlap_and_add/Pad", "inverse_stft_1/overlap_and_add/concat_1"], "attr": {"T": {"type": "DT_FLOAT"}, "Tshape": {"type": "DT_INT32"}}}, {"name": "inverse_stft/overlap_and_add/transpose", "op": "Transpose", "input": ["inverse_stft/overlap_and_add/Reshape", "inverse_stft_1/overlap_and_add/concat_2"], "attr": {"T": {"type": "DT_FLOAT"}, "Tperm": {"type": "DT_INT32"}}}, {"name": "inverse_stft_1/overlap_and_add/transpose", "op": "Transpose", "input": ["inverse_stft_1/overlap_and_add/Reshape", "inverse_stft_1/overlap_and_add/concat_2"], "attr": {"Tperm": {"type": "DT_INT32"}, "T": {"type": "DT_FLOAT"}}}, {"name": "inverse_stft/overlap_and_add/Reshape_1", "op": "Reshape", "input": ["inverse_stft/overlap_and_add/transpose", "inverse_stft/overlap_and_add/concat_3"], "attr": {"T": {"type": "DT_FLOAT"}, "Tshape": {"type": "DT_INT32"}}}, {"name": "inverse_stft_1/overlap_and_add/Reshape_1", "op": "Reshape", "input": ["inverse_stft_1/overlap_and_add/transpose", "inverse_stft_1/overlap_and_add/concat_3"], "attr": {"T": {"type": "DT_FLOAT"}, "Tshape": {"type": "DT_INT32"}}}, {"name": "inverse_stft/overlap_and_add/strided_slice_3", "op": "StridedSlice", "input": ["inverse_stft/overlap_and_add/Reshape_1", "inverse_stft_1/overlap_and_add/strided_slice_3/stack", "inverse_stft/overlap_and_add/strided_slice_3/stack_1", "inverse_stft_1/overlap_and_add/strided_slice_3/stack_2"], "attr": {"end_mask": {"i": "4"}, "Index": {"type": "DT_INT32"}, "T": {"type": "DT_FLOAT"}, "shrink_axis_mask": {"i": "0"}, "begin_mask": {"i": "6"}, "ellipsis_mask": {"i": "1"}, "new_axis_mask": {"i": "0"}}}, {"name": "inverse_stft_1/overlap_and_add/strided_slice_3", "op": "StridedSlice", "input": ["inverse_stft_1/overlap_and_add/Reshape_1", "inverse_stft_1/overlap_and_add/strided_slice_3/stack", "inverse_stft_1/overlap_and_add/strided_slice_3/stack_1", "inverse_stft_1/overlap_and_add/strided_slice_3/stack_2"], "attr": {"Index": {"type": "DT_INT32"}, "T": {"type": "DT_FLOAT"}, "shrink_axis_mask": {"i": "0"}, "ellipsis_mask": {"i": "1"}, "begin_mask": {"i": "6"}, "new_axis_mask": {"i": "0"}, "end_mask": {"i": "4"}}}, {"name": "inverse_stft/overlap_and_add/Reshape_2", "op": "Reshape", "input": ["inverse_stft/overlap_and_add/strided_slice_3", "inverse_stft/overlap_and_add/concat_4"], "attr": {"Tshape": {"type": "DT_INT32"}, "T": {"type": "DT_FLOAT"}}}, {"name": "inverse_stft_1/overlap_and_add/Reshape_2", "op": "Reshape", "input": ["inverse_stft_1/overlap_and_add/strided_slice_3", "inverse_stft_1/overlap_and_add/concat_4"], "attr": {"T": {"type": "DT_FLOAT"}, "Tshape": {"type": "DT_INT32"}}}, {"name": "inverse_stft/overlap_and_add/Sum", "op": "Sum", "input": ["inverse_stft/overlap_and_add/Reshape_2", "inverse_stft_1/overlap_and_add/Sum/reduction_indices"], "attr": {"T": {"type": "DT_FLOAT"}, "keep_dims": {"b": false}, "Tidx": {"type": "DT_INT32"}}}, {"name": "inverse_stft_1/overlap_and_add/Sum", "op": "Sum", "input": ["inverse_stft_1/overlap_and_add/Reshape_2", "inverse_stft_1/overlap_and_add/Sum/reduction_indices"], "attr": {"keep_dims": {"b": false}, "Tidx": {"type": "DT_INT32"}, "T": {"type": "DT_FLOAT"}}}, {"name": "inverse_stft/overlap_and_add/Reshape_3", "op": "Reshape", "input": ["inverse_stft/overlap_and_add/Sum", "inverse_stft/overlap_and_add/concat_5"], "attr": {"T": {"type": "DT_FLOAT"}, "Tshape": {"type": "DT_INT32"}}}, {"name": "inverse_stft_1/overlap_and_add/Reshape_3", "op": "Reshape", "input": ["inverse_stft_1/overlap_and_add/Sum", "inverse_stft_1/overlap_and_add/concat_5"], "attr": {"T": {"type": "DT_FLOAT"}, "Tshape": {"type": "DT_INT32"}}}, {"name": "inverse_stft/overlap_and_add/strided_slice_4", "op": "StridedSlice", "input": ["inverse_stft/overlap_and_add/Reshape_3", "stft/frame/zeros_like", "inverse_stft/overlap_and_add/strided_slice_4/stack_1", "inverse_stft_1/overlap_and_add/strided_slice_4/stack_2"], "attr": {"shrink_axis_mask": {"i": "0"}, "ellipsis_mask": {"i": "1"}, "begin_mask": {"i": "2"}, "new_axis_mask": {"i": "0"}, "end_mask": {"i": "0"}, "Index": {"type": "DT_INT32"}, "T": {"type": "DT_FLOAT"}}}, {"name": "inverse_stft_1/overlap_and_add/strided_slice_4", "op": "StridedSlice", "input": ["inverse_stft_1/overlap_and_add/Reshape_3", "stft/frame/zeros_like", "inverse_stft_1/overlap_and_add/strided_slice_4/stack_1", "inverse_stft_1/overlap_and_add/strided_slice_4/stack_2"], "attr": {"shrink_axis_mask": {"i": "0"}, "begin_mask": {"i": "2"}, "ellipsis_mask": {"i": "1"}, "new_axis_mask": {"i": "0"}, "end_mask": {"i": "0"}, "T": {"type": "DT_FLOAT"}, "Index": {"type": "DT_INT32"}}}, {"name": "mul_2", "op": "Mul", "input": ["inverse_stft/overlap_and_add/strided_slice_4", "mul_5/y"], "attr": {"T": {"type": "DT_FLOAT"}}}, {"name": "mul_5", "op": "Mul", "input": ["inverse_stft_1/overlap_and_add/strided_slice_4", "mul_5/y"], "attr": {"T": {"type": "DT_FLOAT"}}}, {"name": "transpose_3", "op": "Transpose", "input": ["mul_2", "transpose/perm"], "attr": {"Tperm": {"type": "DT_INT32"}, "T": {"type": "DT_FLOAT"}}}, {"name": "transpose_5", "op": "Transpose", "input": ["mul_5", "transpose/perm"], "attr": {"Tperm": {"type": "DT_INT32"}, "T": {"type": "DT_FLOAT"}}}, {"name": "strided_slice_13", "op": "StridedSlice", "input": ["transpose_3", "stft/frame/zeros_like", "strided_slice_13/stack_1", "inverse_stft_1/overlap_and_add/strided_slice_4/stack_2"], "attr": {"T": {"type": "DT_FLOAT"}, "Index": {"type": "DT_INT32"}, "shrink_axis_mask": {"i": "0"}, "begin_mask": {"i": "3"}, "ellipsis_mask": {"i": "0"}, "new_axis_mask": {"i": "0"}, "end_mask": {"i": "2"}}}, {"name": "strided_slice_23", "op": "StridedSlice", "input": ["transpose_5", "stft/frame/zeros_like", "strided_slice_13/stack_1", "inverse_stft_1/overlap_and_add/strided_slice_4/stack_2"], "attr": {"T": {"type": "DT_FLOAT"}, "Index": {"type": "DT_INT32"}, "shrink_axis_mask": {"i": "0"}, "ellipsis_mask": {"i": "0"}, "begin_mask": {"i": "3"}, "new_axis_mask": {"i": "0"}, "end_mask": {"i": "2"}}}], "versions": {"minConsumer": 12}}, "weightsManifest": [{"paths": ["group1-shard1of19.bin", "group1-shard2of19.bin", "group1-shard3of19.bin", "group1-shard4of19.bin", "group1-shard5of19.bin", "group1-shard6of19.bin", "group1-shard7of19.bin", "group1-shard8of19.bin", "group1-shard9of19.bin", "group1-shard10of19.bin", "group1-shard11of19.bin", "group1-shard12of19.bin", "group1-shard13of19.bin", "group1-shard14of19.bin", "group1-shard15of19.bin", "group1-shard16of19.bin", "group1-shard17of19.bin", "group1-shard18of19.bin", "group1-shard19of19.bin"], "weights": [{"name": "transpose/perm", "shape": [2], "dtype": "int32"}, {"name": "stft/frame_length", "shape": [], "dtype": "int32"}, {"name": "stft/frame_step", "shape": [], "dtype": "int32"}, {"name": "stft/frame/strided_slice", "shape": [], "dtype": "int32"}, {"name": "stft/frame/strided_slice_1/stack", "shape": [1], "dtype": "int32"}, {"name": "stft/frame/packed", "shape": [3], "dtype": "int32"}, {"name": "stft/frame/split/split_dim", "shape": [], "dtype": "int32"}, {"name": "stft/frame/Reshape/shape", "shape": [0], "dtype": "int32"}, {"name": "stft/frame/Const", "shape": [], "dtype": "float32"}, {"name": "stft/frame/zeros/packed/1", "shape": [], "dtype": "int32"}, {"name": "stft/frame/strided_slice_1/stack_1", "shape": [1], "dtype": "int32"}, {"name": "stft/frame/zeros_like", "shape": [2], "dtype": "int32"}, {"name": "stft/frame/Reshape_3", "shape": [1, 4], "dtype": "int32"}, {"name": "stft/hann_window/sub_2", "shape": [4096], "dtype": "float32"}, {"name": "transpose_1/perm", "shape": [3], "dtype": "int32"}, {"name": "strided_slice/stack", "shape": [1], "dtype": "int32"}, {"name": "FloorMod/y", "shape": [], "dtype": "int32"}, {"name": "strided_slice_3/stack", "shape": [4], "dtype": "int32"}, {"name": "strided_slice_3/stack_1", "shape": [4], "dtype": "int32"}, {"name": "strided_slice_3/stack_2", "shape": [4], "dtype": "int32"}, {"name": "conv2d/kernel", "shape": [5, 5, 2, 16], "dtype": "float32"}, {"name": "conv2d/bias", "shape": [16], "dtype": "float32"}, {"name": "batch_normalization/gamma", "shape": [16], "dtype": "float32"}, {"name": "batch_normalization/beta", "shape": [16], "dtype": "float32"}, {"name": "batch_normalization/moving_mean", "shape": [16], "dtype": "float32"}, {"name": "batch_normalization/moving_variance", "shape": [16], "dtype": "float32"}, {"name": "keras_learning_phase/input", "shape": [], "dtype": "bool"}, {"name": "conv2d_1/kernel", "shape": [5, 5, 16, 32], "dtype": "float32"}, {"name": "conv2d_1/bias", "shape": [32], "dtype": "float32"}, {"name": "batch_normalization_1/gamma", "shape": [32], "dtype": "float32"}, {"name": "batch_normalization_1/beta", "shape": [32], "dtype": "float32"}, {"name": "batch_normalization_1/moving_mean", "shape": [32], "dtype": "float32"}, {"name": "batch_normalization_1/moving_variance", "shape": [32], "dtype": "float32"}, {"name": "conv2d_2/kernel", "shape": [5, 5, 32, 64], "dtype": "float32"}, {"name": "conv2d_2/bias", "shape": [64], "dtype": "float32"}, {"name": "inverse_stft_1/overlap_and_add/concat_2", "shape": [4], "dtype": "int32"}, {"name": "batch_normalization_2/gamma", "shape": [64], "dtype": "float32"}, {"name": "batch_normalization_2/beta", "shape": [64], "dtype": "float32"}, {"name": "batch_normalization_2/moving_mean", "shape": [64], "dtype": "float32"}, {"name": "batch_normalization_2/moving_variance", "shape": [64], "dtype": "float32"}, {"name": "conv2d_3/kernel", "shape": [5, 5, 64, 128], "dtype": "float32"}, {"name": "conv2d_3/bias", "shape": [128], "dtype": "float32"}, {"name": "batch_normalization_3/gamma", "shape": [128], "dtype": "float32"}, {"name": "batch_normalization_3/beta", "shape": [128], "dtype": "float32"}, {"name": "batch_normalization_3/moving_mean", "shape": [128], "dtype": "float32"}, {"name": "batch_normalization_3/moving_variance", "shape": [128], "dtype": "float32"}, {"name": "conv2d_4/kernel", "shape": [5, 5, 128, 256], "dtype": "float32"}, {"name": "conv2d_4/bias", "shape": [256], "dtype": "float32"}, {"name": "batch_normalization_4/gamma", "shape": [256], "dtype": "float32"}, {"name": "batch_normalization_4/beta", "shape": [256], "dtype": "float32"}, {"name": "batch_normalization_4/moving_mean", "shape": [256], "dtype": "float32"}, {"name": "batch_normalization_4/moving_variance", "shape": [256], "dtype": "float32"}, {"name": "conv2d_5/kernel", "shape": [5, 5, 256, 512], "dtype": "float32"}, {"name": "conv2d_5/bias", "shape": [512], "dtype": "float32"}, {"name": "conv2d_transpose/kernel", "shape": [5, 5, 256, 512], "dtype": "float32"}, {"name": "conv2d_transpose/bias", "shape": [256], "dtype": "float32"}, {"name": "inverse_stft_1/overlap_and_add/strided_slice_3/stack", "shape": [3], "dtype": "int32"}, {"name": "conv2d_transpose/strided_slice_2/stack_1", "shape": [1], "dtype": "int32"}, {"name": "conv2d_transpose/stack/3", "shape": [], "dtype": "int32"}, {"name": "batch_normalization_6/gamma", "shape": [256], "dtype": "float32"}, {"name": "batch_normalization_6/beta", "shape": [256], "dtype": "float32"}, {"name": "concatenate/concat/axis", "shape": [], "dtype": "int32"}, {"name": "conv2d_transpose_1/kernel", "shape": [5, 5, 128, 512], "dtype": "float32"}, {"name": "conv2d_transpose_1/bias", "shape": [128], "dtype": "float32"}, {"name": "conv2d_transpose_1/stack/3", "shape": [], "dtype": "int32"}, {"name": "batch_normalization_7/gamma", "shape": [128], "dtype": "float32"}, {"name": "batch_normalization_7/beta", "shape": [128], "dtype": "float32"}, {"name": "conv2d_transpose_2/kernel", "shape": [5, 5, 64, 256], "dtype": "float32"}, {"name": "conv2d_transpose_2/bias", "shape": [64], "dtype": "float32"}, {"name": "inverse_stft_1/overlap_and_add/strided_slice_3/stack_2", "shape": [3], "dtype": "int32"}, {"name": "conv2d_transpose_2/stack/3", "shape": [], "dtype": "int32"}, {"name": "batch_normalization_8/gamma", "shape": [64], "dtype": "float32"}, {"name": "batch_normalization_8/beta", "shape": [64], "dtype": "float32"}, {"name": "conv2d_transpose_3/kernel", "shape": [5, 5, 32, 128], "dtype": "float32"}, {"name": "conv2d_transpose_3/bias", "shape": [32], "dtype": "float32"}, {"name": "conv2d_transpose_3/stack/3", "shape": [], "dtype": "int32"}, {"name": "batch_normalization_9/gamma", "shape": [32], "dtype": "float32"}, {"name": "batch_normalization_9/beta", "shape": [32], "dtype": "float32"}, {"name": "conv2d_transpose_4/kernel", "shape": [5, 5, 16, 64], "dtype": "float32"}, {"name": "conv2d_transpose_4/bias", "shape": [16], "dtype": "float32"}, {"name": "conv2d_transpose_4/stack/3", "shape": [], "dtype": "int32"}, {"name": "batch_normalization_10/gamma", "shape": [16], "dtype": "float32"}, {"name": "batch_normalization_10/beta", "shape": [16], "dtype": "float32"}, {"name": "conv2d_transpose_5/kernel", "shape": [5, 5, 1, 32], "dtype": "float32"}, {"name": "conv2d_transpose_5/bias", "shape": [1], "dtype": "float32"}, {"name": "batch_normalization_11/gamma", "shape": [1], "dtype": "float32"}, {"name": "batch_normalization_11/beta", "shape": [1], "dtype": "float32"}, {"name": "batch_normalization_11/moving_mean", "shape": [1], "dtype": "float32"}, {"name": "batch_normalization_11/moving_variance", "shape": [1], "dtype": "float32"}, {"name": "conv2d_6/kernel", "shape": [4, 4, 1, 2], "dtype": "float32"}, {"name": "conv2d_6/bias", "shape": [2], "dtype": "float32"}, {"name": "inverse_stft_1/overlap_and_add/Sum/reduction_indices", "shape": [], "dtype": "int32"}, {"name": "conv2d_6/SpaceToBatchND/block_shape", "shape": [2], "dtype": "int32"}, {"name": "conv2d_6/SpaceToBatchND/paddings", "shape": [2, 2], "dtype": "int32"}, {"name": "conv2d_6/BatchToSpaceND/crops", "shape": [2, 2], "dtype": "int32"}, {"name": "conv2d_7/kernel", "shape": [5, 5, 2, 16], "dtype": "float32"}, {"name": "conv2d_7/bias", "shape": [16], "dtype": "float32"}, {"name": "batch_normalization_12/gamma", "shape": [16], "dtype": "float32"}, {"name": "batch_normalization_12/beta", "shape": [16], "dtype": "float32"}, {"name": "conv2d_8/kernel", "shape": [5, 5, 16, 32], "dtype": "float32"}, {"name": "conv2d_8/bias", "shape": [32], "dtype": "float32"}, {"name": "batch_normalization_13/gamma", "shape": [32], "dtype": "float32"}, {"name": "batch_normalization_13/beta", "shape": [32], "dtype": "float32"}, {"name": "conv2d_9/kernel", "shape": [5, 5, 32, 64], "dtype": "float32"}, {"name": "conv2d_9/bias", "shape": [64], "dtype": "float32"}, {"name": "batch_normalization_14/gamma", "shape": [64], "dtype": "float32"}, {"name": "batch_normalization_14/beta", "shape": [64], "dtype": "float32"}, {"name": "conv2d_10/kernel", "shape": [5, 5, 64, 128], "dtype": "float32"}, {"name": "conv2d_10/bias", "shape": [128], "dtype": "float32"}, {"name": "batch_normalization_15/gamma", "shape": [128], "dtype": "float32"}, {"name": "batch_normalization_15/beta", "shape": [128], "dtype": "float32"}, {"name": "conv2d_11/kernel", "shape": [5, 5, 128, 256], "dtype": "float32"}, {"name": "conv2d_11/bias", "shape": [256], "dtype": "float32"}, {"name": "batch_normalization_16/gamma", "shape": [256], "dtype": "float32"}, {"name": "batch_normalization_16/beta", "shape": [256], "dtype": "float32"}, {"name": "conv2d_12/kernel", "shape": [5, 5, 256, 512], "dtype": "float32"}, {"name": "conv2d_12/bias", "shape": [512], "dtype": "float32"}, {"name": "inverse_stft_1/overlap_and_add/strided_slice_4/stack_2", "shape": [2], "dtype": "int32"}, {"name": "conv2d_transpose_6/kernel", "shape": [5, 5, 256, 512], "dtype": "float32"}, {"name": "conv2d_transpose_6/bias", "shape": [256], "dtype": "float32"}, {"name": "mul_5/y", "shape": [], "dtype": "float32"}, {"name": "batch_normalization_18/gamma", "shape": [256], "dtype": "float32"}, {"name": "batch_normalization_18/beta", "shape": [256], "dtype": "float32"}, {"name": "conv2d_transpose_7/kernel", "shape": [5, 5, 128, 512], "dtype": "float32"}, {"name": "conv2d_transpose_7/bias", "shape": [128], "dtype": "float32"}, {"name": "batch_normalization_19/gamma", "shape": [128], "dtype": "float32"}, {"name": "batch_normalization_19/beta", "shape": [128], "dtype": "float32"}, {"name": "conv2d_transpose_8/kernel", "shape": [5, 5, 64, 256], "dtype": "float32"}, {"name": "conv2d_transpose_8/bias", "shape": [64], "dtype": "float32"}, {"name": "batch_normalization_20/gamma", "shape": [64], "dtype": "float32"}, {"name": "batch_normalization_20/beta", "shape": [64], "dtype": "float32"}, {"name": "conv2d_transpose_9/kernel", "shape": [5, 5, 32, 128], "dtype": "float32"}, {"name": "conv2d_transpose_9/bias", "shape": [32], "dtype": "float32"}, {"name": "batch_normalization_21/gamma", "shape": [32], "dtype": "float32"}, {"name": "batch_normalization_21/beta", "shape": [32], "dtype": "float32"}, {"name": "conv2d_transpose_10/kernel", "shape": [5, 5, 16, 64], "dtype": "float32"}, {"name": "conv2d_transpose_10/bias", "shape": [16], "dtype": "float32"}, {"name": "batch_normalization_22/gamma", "shape": [16], "dtype": "float32"}, {"name": "batch_normalization_22/beta", "shape": [16], "dtype": "float32"}, {"name": "conv2d_transpose_11/kernel", "shape": [5, 5, 1, 32], "dtype": "float32"}, {"name": "conv2d_transpose_11/bias", "shape": [1], "dtype": "float32"}, {"name": "batch_normalization_23/gamma", "shape": [1], "dtype": "float32"}, {"name": "batch_normalization_23/beta", "shape": [1], "dtype": "float32"}, {"name": "conv2d_13/kernel", "shape": [4, 4, 1, 2], "dtype": "float32"}, {"name": "conv2d_13/bias", "shape": [2], "dtype": "float32"}, {"name": "add_1/y", "shape": [], "dtype": "float32"}, {"name": "add_2/y", "shape": [], "dtype": "float32"}, {"name": "strided_slice_6/stack", "shape": [1], "dtype": "int32"}, {"name": "Tile/multiples", "shape": [4], "dtype": "int32"}, {"name": "transpose_2/perm", "shape": [3], "dtype": "int32"}, {"name": "inverse_stft/overlap_and_add/strided_slice/stack_1", "shape": [1], "dtype": "int32"}, {"name": "stft/rfft/packed", "shape": [1], "dtype": "int32"}, {"name": "stft/frame/zeros", "shape": [1, 2], "dtype": "int32"}, {"name": "stft/frame/zeros_1", "shape": [0, 2], "dtype": "int32"}, {"name": "batch_normalization/cond/Const", "shape": [0], "dtype": "float32"}, {"name": "dropout/cond/dropout/rate", "shape": [], "dtype": "float32"}, {"name": "dropout/cond/dropout/truediv", "shape": [], "dtype": "float32"}, {"name": "ConstantFolding/stft/frame/concat/values_1_const_axis", "shape": [], "dtype": "int32"}, {"name": "ConstantFolding/stft/frame/concat_1/values_1_const_axis", "shape": [], "dtype": "int32"}, {"name": "ConstantFolding/concat_2/values_0_const_axis", "shape": [], "dtype": "int32"}, {"name": "ConstantFolding/concat_4/values_0_const_axis", "shape": [], "dtype": "int32"}, {"name": "ConstantFolding/inverse_stft/overlap_and_add/concat_5/values_1_const_axis", "shape": [], "dtype": "int32"}, {"name": "ConstantFolding/inverse_stft_1/overlap_and_add/concat_5/values_1_const_axis", "shape": [], "dtype": "int32"}]}]}